model_curriculum/4. NoFrameStack 2 NonMoving Plats with Enemies/noframestack_curriculum_game_2_plats_WITH_enemies.onnx (onnx, 42972 bytes, 6 tensors)

mlp_extractor.policy_net.0.weight f4 [64, 90]
00000000: d3eb 65bd 973b b8bc 1abf b73d 1004 b0bd
00000010: 32b7 6e3d c931 a93c ca56 203d 4a9d 963e
00000020: 152b 7ebd cd52 eb3d b5c8 03be 193d c63d
00000030: a13e 953e c7e4 843d 1a6a 83bc 84e7 e13d
00000040: 93e3 11bd 99bc 07bd 290d a73c 1500 09be
00000050: 33f0 d83d ca3f b43c 4266 513e 4ffa 2b3e
00000060: e892 603d 9ab9 44bd aed0 d63d dfc6 63bc
00000070: 1d2d e6bd c906 5d3e fd12 893d 452f 523e
00000080: ca15 8dbe 2cb3 61be f87b 433e f664 10bd
00000090: dd7b ab3d 8fbf a6bc b9fa 09bd 22d8 10be
000000a0: f83b e7bd e79f d7bd 07f1 82bc f29c 52bc
000000b0: 6ff3 b33c 0814 8ebe 9694 fbbb 2272 c2bd
000000c0: 9420 1e3d 547c 0f3d a6f5 8f3d 9e28 253c
000000d0: e146 20bd e861 d53c b673 54bd 7337 9e3d
000000e0: 1500 3f3e 0203 ea3d 87a6 e73e 8752 95bd
000000f0: e8a9 3abe 3601 963d 8b67 373d dc01 f3bd
00000100: e30e f3be 7f4a 2ebc 4f57 c63a 96f6 b3bc
00000110: c6ac a53e 077c 293c 0c93 ebbd 74bf 973e
00000120: d6ca 89be c200 483e cf9d f2bd 5640 0cbe
00000130: 71fa 37be 03e3 6d3d c213 23bc 97c2 5b3d
00000140: c0a8 9a3d b0ec 4b3c a359 943e ead9 943d
00000150: 3cd4 d93d 2801 9abe 9694 d33c 06c0 303e
00000160: 9cda 243c 3af0 433e 5e0f ccbd 0d8d 77be
00000170: e033 cabd a697 853d 82c4 b53d 1c60 14be
00000180: 94f4 67be fff9 493d db7b 0c3e 1b89 e4bd
00000190: 079f b03d 9d98 11be 2b41 99bd a36d b5bd
000001a0: c37f 003e ddda 1dbe d60b eabe 2d97 7bbe
000001b0: 0310 1bbe 1144 52be 65ca 9abe cb6d 8bbe
000001c0: 3b1c 9eba 7743 18be 174c 03bf 314d e2be
000001d0: 1521 01bf 6da6 9fbe 1edb 48be ed86 d3bd
000001e0: bb9b c13d 495a c83d 951b 4cbd 3889 e33d
000001f0: fded 0b3d 3d91 a53b 34ff 863d 50f3 edbd
00000200: 6b6f e13c 07fc 673d 9b64 9fbe 4bfe 70bc
00000210: 04b6 2a3e a45d 5e3e 2735 a8be 6403 c2bd
00000220: 54d0 5bbe 6ab1 4b3d a4bf 98be 91d7 9c3e
00000230: da57 ac3a a325 613d 6ebc b0bd 1515 2b3e
00000240: 7a65 2d3d b56c 57be d60b aabd 29e7 303e
00000250: f17f a53c 3822 283d 808a edbd a994 d43d
00000260: 6d90 553d 3ae0 663e 6e0b 45bb 6922 63be
00000270: 8f88 8f3d 3a48 f7bd 5375 533e f7d8 043d
00000280: e835 8c3e 0d88 7bbe fb03 99bc 00ec 133e
00000290: 8585 f23d 47c7 debc 2bc2 06bd 338f e93b
000002a0: 2014 26be 2ee7 653d 8133 2b3e ed92 a43d
000002b0: 41c7 a5be 29c4 5d3e 21e5 38bd 45d6 fd3d
000002c0: e09f 40be 3740 5b3d 3a9b 983d 95d7 10be
000002d0: f2ed 07be de58 4fbe 0a11 d83d 8472 f2bd
000002e0: 9b92 a2bd 3f72 19be 997c 2c3e 4a1d 473d
000002f0: 1be3 523d 406a 143e ee67 5b3e 8e4a 183c
00000300: 8e3d a43c f5cd 223d cb59 0a3e e264 733e
00000310: a4b7 303e 2aac 4f3e 8a63 853e efda 203e
00000320: def3 c2bd b9c9 d6bd df9d f23e 2e0d 0b3e
00000330: 9be8 803d 426d 513e e141 1e3f ac55 853d
00000340: df22 1c3e 330b c9bd e50e 89bd 46d8 62be
00000350: 1d13 dc3b 760a 233d 65e0 583e 1810 bdbd
00000360: 1ff7 94bd 1c0f 4e3d 2833 febc c799 4fbe
00000370: c9cb 30bc fcbf 1a3d b6f5 c1be d326 abbd
00000380: 3489 533d 9a66 b03d 7326 25be f33b b33d
00000390: edf2 023e 6278 5e3e dd52 04bd edbe e33d
000003a0: 1874 cabd 748f 233e b185 a4be 25b9 c9bd
000003b0: 3db2 7a3d eb5e 153e a3ca 0fbe 5276 2e3d
000003c0: a2ce 833d b478 06be d5c0 9b3e 6833 133e
000003d0: c175 1b3d c684 6b3d cd70 043e f07d 7b3d
000003e0: aa0f 3f3d ef15 c53c c292 bb3d 7fa7 0fbe
000003f0: 8d4c 96bd e536 893e 3bbe d4bc c4b4 adbd
-0.056133103 -0.022489352 0.089719966 -0.08594525 0.058280177 0.020653622 0.03914527 0.29416877
-0.062052805 0.11490402 -0.12869532 0.09679622 0.29149345 0.06488948 -0.016041804 0.11030486
-0.035617422 -0.033138845 0.020392017 -0.13378938 0.10592689 0.022003073 0.20449165 0.16794704
0.0548276 -0.048028566 0.10489021 -0.013902395 -0.112390734 0.2158462 0.06693075 0.20525844
-0.27555686 -0.22041005 0.19090259 -0.035252534 0.083732344 -0.020355014 -0.033686373 -0.14144948
-0.11290735 -0.10528546 -0.015984071 -0.0128548015 0.021966664 -0.27749658 -0.007677625 -0.09494425
0.038605288 0.035030678 0.070292756 0.010080485 -0.039130095 0.026047662 -0.051868163 0.0772542
0.18652375 0.11426355 0.45244238 -0.072911315 -0.18228877 0.0732445 0.04477648 -0.11865589
-0.47472295 -0.010637878 0.0015132221 -0.021968167 0.32358378 0.010344512 -0.11502656 0.29638255
-0.26912564 0.19531539 -0.11846506 -0.13696417 -0.1796663 0.058077823 -0.009953441 0.053652372
0.07551718 0.012446567 0.28974637 0.07268126 0.106361836 -0.30079007 0.025827687 0.17260751
0.010061886 0.19134608 -0.099638686 -0.241749 -0.098731756 0.06523065 0.088753715 -0.14489788
-0.22651893 0.04931068 0.13719122 -0.11158963 0.08624082 -0.14218374 -0.07483133 -0.08858802
0.12548737 -0.15415521 -0.45712155 -0.24569388 -0.15142827 -0.20533778 -0.3023254 -0.27232203
-0.0012062857 -0.14869486 -0.5128798 -0.44199517 -0.50441104 -0.3118166 -0.19614837 -0.103284694
0.09453531 0.097828455 -0.04983099 0.11110157 0.03416251 0.005052714 0.06591645 -0.11618674
0.027518949 0.056636836 -0.31131443 -0.014709066 0.16670996 0.21715409 -0.32853052 -0.09473303
-0.2146619 0.049729742 -0.2983371 0.30633214 0.001314874 0.054967534 -0.0862969 0.16707261
0.042333104 -0.21037562 -0.08303039 0.1727568 0.020202609 0.04104826 -0.115986824 0.10379917
0.05213969 0.22546473 -0.0030066627 -0.22181095 0.07008468 -0.12074323 0.20650224 0.032433476
0.27384877 -0.24563618 -0.018678656 0.14445496 0.11841873 -0.027194632 -0.032900017 0.0071276664
-0.16218615 0.056128673 0.16718866 0.08035836 -0.3237858 0.2165686 -0.04514039 0.12394384
-0.18810987 0.053528037 0.07451482 -0.14144738 -0.13274363 -0.20248744 0.10550125 -0.11838248
-0.07938119 -0.14984988 0.16844405 0.048611917 0.051486116 0.14493656 0.21426365 0.009295119
0.020048883 0.039747197 0.13510816 0.23768952 0.17257553 0.20280519 0.26052505 0.15708517
-0.0951917 -0.10487694 0.4738607 0.13579246 0.06294366 0.20451835 0.61819273 0.06510481
0.15247677 -0.09816589 -0.06692294 -0.22152814 0.0067161457 0.0398049 0.2117935 -0.09231585
-0.07273697 0.05030738 -0.031030253 -0.20273505 -0.010790774 0.037780747 -0.37882775 -0.083570145
0.05164452 0.0861332 -0.16127948 0.08751669 0.12787981 0.2172561 -0.032305587 0.111204006
-0.098854244 0.15972692 -0.32133248 -0.09849767 0.061205138 0.1458699 -0.14042144 0.042593308
0.064358965 -0.13131982 0.30420557 0.14375079 0.037954096 0.05749967 0.12933655 0.0613994
0.046645798 0.02405831 0.09158851 -0.14028738 -0.0733882 0.26799694 -0.025969615 -0.08481744

mlp_extractor.policy_net.0.bias f4 [64]
00000000: 4f33 29bb 3c32 25bd 5e03 a53d 8134 133d
00000010: 4275 a23c aa58 7a3c cf6d 2dbd 3750 323c
00000020: 1905 9abc c407 ccb8 38f2 ccbb 4788 bd3d
00000030: 99e3 50bc 9f59 d33c 572d 823d 1fd6 893d
00000040: 53b9 60bc 56d1 1bbd 4c26 053c 63c6 023d
00000050: 45d6 0f3d abdc aebc 4c81 d13c 6c8c 603d
00000060: 2dc9 5b3d bcb2 e1bc 900a 16bd 78e5 023d
00000070: 8474 393b 1f66 33bd 1b5a 1a3c ad43 b23c
00000080: e44c bdbb 4ac6 dd3c eccc c1bc f526 943d
00000090: 14e4 e63c 2153 4d3d 9ae8 d03d 6f7a f93c
000000a0: 2d57 fa3c 4bf7 d5bc e92d 303c dc2b 43bd
000000b0: 8134 33bd 2484 c73c 2910 843d 9058 3f3c
000000c0: 2c7e 183d e833 8a3c 3532 693d 395e f13c
000000d0: afb3 4dbd f606 2bbc 666f 1a3c c7cf 693d
000000e0: 2c3c c539 1bc0 fe3b c7f0 813c 351d 21bd
000000f0: c2b4 ad39 0812 4cbb 56cf 15bd dabb 8dbd
-0.0025817936 -0.04033111 0.08057283 0.035938744 0.019831304 0.015279928 -0.04234105 0.0108833825
-0.018801259 -9.7289245e-05 -0.0062544607 0.092545085 -0.012749576 0.02579957 0.06356304 0.067302935
-0.01371606 -0.038041435 0.0081268065 0.031927478 0.035116453 -0.021345457 0.025574349 0.054821417
0.053658653 -0.027551048 -0.036631167 0.03195712 0.0028298208 -0.043798562 0.009420897 0.021760786
-0.0057769883 0.02707209 -0.023657285 0.07233993 0.028184928 0.050128106 0.10200615 0.030453889
0.030559147 -0.026118895 0.010753133 -0.04764925 -0.043751244 0.024355002 0.06448395 0.01167883
0.037229702 0.016870454 0.056932647 0.029463874 -0.050220188 -0.010438671 0.0094259735 0.057082918
0.000376196 0.0077743656 0.015861882 -0.039334495 0.00033131806 -0.0031138677 -0.036574684 -0.069205955

mlp_extractor.policy_net.2.weight f4 [64, 64]
00000000: 9947 bfbe 94e7 8d3a e046 78be 9c94 4f3d
00000010: 0fe6 babd 7139 763d 86f7 833e fc1e 0bbd
00000020: ffaf 97be 0af0 1cbd c223 093e 5936 ad3e
00000030: c07a d23d 1a71 8cbd e834 57bd 2a25 f6bd
00000040: 4f30 e6bd 5452 243d 7f34 45be ce39 54bc
00000050: 28f2 00be d8d9 923e 40b4 60be 2854 9d3e
00000060: 5004 60be 9de1 fbbd 8143 19bc 7417 b2be
00000070: 4f17 dfbc 4041 c83d 584f c0be bce5 d63d
00000080: 84ba c6bd 23dc 9c3d 3faf 393e 7f6a 2cbe
00000090: 56a5 82be f7d8 43be 7409 16be b98c 163e
000000a0: ef97 59be 6aeb 2cbe 3dd2 a3bd 0e37 5dbe
000000b0: 1630 033e 0cf0 dbbd f7a7 12bc e384 4a3c
000000c0: bea6 56bd ccfc 61be daa1 693e 3a37 9abe
000000d0: 5d06 b83e 36c6 70be a298 363e b435 043b
000000e0: 6eae 1abd 9d72 b23d 1c5d 29be 2f2c 80be
000000f0: e24b 573e c737 44be 2fbd 5f3e 5c4c 3b3e
00000100: 4005 22be d641 593e 183a 28be 5142 933e
00000110: 5f7b 6f3d c8b9 21be a1a3 613e b4fa 92bd
00000120: 1abf 46be c482 91be 05f5 a43d ddb2 90bd
00000130: 40c2 213e 4f03 7dbe 186f 673e 3e54 043e
00000140: da6d 10bd 9304 523d 53c9 723d 24c9 d63e
00000150: 31ab d53e 47cc 163e d834 00be 04f3 a9bc
00000160: 7a73 c1be 1008 0abe 5059 173d 1ada 20bd
00000170: e7da d0ba ac39 3c3e 24c3 03be a95c c7bc
00000180: 5b46 293e 1407 d2bd bc07 81be b15a d8bc
00000190: 6f27 39be cd8d 01bd 89b3 993e 3514 73be
000001a0: 7eb3 c9bc cc05 263d e19e 043d 271b 7f3e
000001b0: 8da5 51be 24cd 323e 03db 453d c7cd aa3e
000001c0: 23b0 c93d 8ece 4dbd 70a9 663e f804 e63d
000001d0: 92bb ba3d 1796 c63c 01c7 99bd 458d e0bc
000001e0: 2016 5f3c 13b0 17bd 8844 e9bd 599d b73e
000001f0: e396 2d3b 6645 643c 683a acbe e259 593e
00000200: 25a7 c03c 8f77 053c 3061 57be 1728 45be
00000210: 6690 953d 83a4 69bd c42f 913e 0c09 97be
00000220: ee9e 85bc f2a8 5dbd 3034 abbd 2497 31be
00000230: 7a79 003d b84f 453e 2668 02bf 2170 c93d
00000240: 5a52 a1be 2e9f f03d 4a5d 0a3e 1431 6fbe
00000250: 264a 3a3e bbd9 62bd f854 9f3e 4251 3a3e
00000260: cd25 bb3d ce66 ed3c 63e8 e9bd 2b00 f03d
00000270: d35b 51be aae9 f1bd 41be 8a3e cab8 df3d
00000280: 9c86 b3bc 054f 863e efda d23d 44bc 633e
00000290: 16c2 453e 5ab3 5f3d 705e 303e d8d8 273e
000002a0: 6f33 25be 1970 5a3e e636 583d dabd b9bd
000002b0: 7584 1ebf 6cc5 0d3d 861f 8dbd 7337 b7bd
000002c0: 1a42 3f3e 4588 b63e ffae 9c3d ff9d a93d
000002d0: 6904 5c3e 16fb 0e3e fe42 9d3e 6b16 3cbe
000002e0: e0e4 253e 7e12 433d 95eb f2bd 7a45 0bbe
000002f0: 065f ae3c 5230 5a3e 47ae 813b d64c 133e
00000300: 95c4 7cbe eea5 dfbc 655b 4f3d 38ce 2ebe
00000310: 830a 393c a354 8cbd 7ae2 01bd ca07 85be
00000320: c88f 50bd ef89 153d a600 edbc c781 823e
00000330: ab30 853e 94e6 84be fcb5 0a3e 211e 533e
00000340: dcf4 a13e a16b 32be 29ad f73d 8097 0abb
00000350: bc3a 2dbe 9b71 44be dd6e 0d3e faba d9bd
00000360: 211f 0f3e 932d 453e 84e2 d1be 0bf6 0dbe
00000370: 5d3e fb3d 968b 9f3b 256c 773d d5f8 7fbd
00000380: 9c28 8d3e 29cf b3bc 6ca8 5e3e 5039 a73e
00000390: b2c3 013e 1107 e13d 086b 1d3d 2cb0 97bd
000003a0: dfd4 21be 42f3 21bd 060a 79bd bf0e ef3d
000003b0: a03e a7be a084 8c3e 1dce 34be c798 b03e
000003c0: 6765 0fbe 0e95 a03d b52d 383c 4b23 9abd
000003d0: 9860 afbd 1e42 7dbe 7084 8ebb 4433 48be
000003e0: 03a0 c33d 52aa 9a3e fb9d 873e 2761 4cbe
000003f0: 6173 bbbe c17e faba 8467 c83d b508 9abe
-0.37359312 0.0010826462 -0.24245787 0.050678834 -0.091259114 0.060113374 0.25774783 -0.033965096
-0.29626462 -0.038314857 0.13392547 0.33830526 0.10277319 -0.0685751 -0.05254069 -0.12018807
-0.11239683 0.040117577 -0.19258307 -0.012953235 -0.12592375 0.28681827 -0.2194376 0.3072827
-0.21876645 -0.12298892 -0.009354473 -0.34783518 -0.027232794 0.097780704 -0.37560534 0.10493037
-0.09703544 0.07659175 0.18133257 -0.168375 -0.25516766 -0.19125734 -0.14652044 0.14702119
-0.21249364 -0.16886678 -0.07999084 -0.21603033 0.12811312 -0.10739145 -0.008951179 0.012360784
-0.05240511 -0.2206909 0.22815648 -0.3012026 0.35942355 -0.23513111 0.17831662 0.002017361
-0.037764005 0.08713267 -0.16539425 -0.2503371 0.21025041 -0.19161902 0.21849512 0.18290848
-0.15822315 0.2121652 -0.16428411 0.28761533 0.058467265 -0.15793526 0.22035076 -0.07176724
-0.19408837 -0.2842008 0.08054546 -0.070653655 0.15796757 -0.24708293 0.22600973 0.12922761
-0.035261013 0.051273894 0.05927403 0.41950333 0.4173217 0.14726363 -0.12520158 -0.020745762
-0.37783414 -0.13479638 0.03695041 -0.039270498 -0.0015934379 0.18381375 -0.12867409 -0.024336176
0.16530745 -0.10255256 -0.25201213 -0.026410433 -0.18081449 -0.031629372 0.30019787 -0.23738177
-0.024621721 0.040532872 0.03237808 0.24912702 -0.20473309 0.17461067 0.04830457 0.3336012
0.098480485 -0.050245814 0.22525573 0.112314165 0.091178074 0.02424149 -0.0750866 -0.027411113
0.013616115 -0.03703315 -0.113900244 0.35862234 0.002648764 0.0139325615 -0.3363831 0.21225694
0.0235172 0.008146181 -0.21033168 -0.19253574 0.073029324 -0.057041656 0.28356755 -0.2949909
-0.016311135 -0.054116197 -0.08359563 -0.17342812 0.03136585 0.19268692 -0.5094017 0.0983584
-0.31508142 0.11749111 0.1351215 -0.23358566 0.18192348 -0.055383425 0.31119514 0.1819506
0.09138069 0.028979685 -0.114212774 0.11718782 -0.20445184 -0.11812146 0.27098277 0.109239176
-0.021914773 0.26232162 0.102956645 0.22239786 0.19312319 0.054614402 0.17223525 0.16391313
-0.16132902 0.21331824 0.05278673 -0.090694144 -0.61920863 0.034612104 -0.06890778 -0.08946123
0.1867756 0.3565084 0.07650565 0.082820885 0.21486057 0.13962969 0.30715173 -0.18367927
0.1620059 0.047625057 -0.1186134 -0.13600722 0.021285545 0.21307495 0.003957543 0.1438478
-0.24684365 -0.027300801 0.05062427 -0.17070854 0.01129401 -0.06852081 -0.031710126 -0.25982505
-0.05091837 0.036508497 -0.028930973 0.25489637 0.26013693 -0.25957167 0.13545984 0.20616962
0.31632125 -0.1742387 0.120935746 -0.002114743 -0.16916937 -0.19183962 0.13811822 -0.10631366
0.13976718 0.19255666 -0.4099313 -0.13863389 0.12267754 0.004868935 0.06040587 -0.062493164
0.27570045 -0.021949368 0.21743935 0.32660913 0.12672308 0.10987676 0.03843215 -0.07406649
-0.1580386 -0.03953863 -0.060800575 0.116727345 -0.32664967 0.27444935 -0.17656751 0.3449156
-0.14003526 0.0784093 0.011241366 -0.07526263 -0.08563346 -0.24732253 -0.004349284 -0.19550806
0.09552004 0.3020807 0.26487717 -0.19958936 -0.36611465 -0.0019111262 0.09785369 -0.30084768

mlp_extractor.policy_net.2.bias f4 [64]
00000000: c987 91b9 a6ad 0e3c 4084 22bc 5570 243c
00000010: f694 513d cd96 433d 5145 9fbc 894f 7cbc
00000020: 568f 793c 69bc 643d d3d9 baba ec0e ee3c
00000030: 314b 953b d2bf 093d b7bb 703b d9eb 2abd
00000040: f8ad 833d 4567 1abd c446 6fbd 8a81 d83c
00000050: af99 a3bc 121e 42bd 84c5 a13c 0d39 7abb
00000060: bece 42bb dab1 2cbd 2472 dd3b 9b5b 46bd
00000070: 36f2 beba cc0f 353d 7bb5 e4bc a86e f53c
00000080: 52a8 6bbd 7f5f 1e3d 6f3f 59bd 26e5 5cbd
00000090: 476a 8e3b 66c3 0a3d 2f5a bdbc f7c1 413d
000000a0: 7046 ffbb 2e7c 6ebc 563f acbc 2f41 f23c
000000b0: 544d 7a3d e57d 0e3d 34ec 70bc 8fac cfbc
000000c0: 9bd2 083c 634a 9f3b 89c6 083d 70c4 5fbd
000000d0: 989f f6bc 4535 99bc c6c3 423d 11e4 493d
000000e0: ccd1 f53b 0ffa 593d 90bb 033d 9549 1b3c
000000f0: ce14 0e3d 70d8 23bc 7b90 9dbc 0600 c33c
-0.00027757723 0.008708393 -0.009919226 0.010036548 0.05116745 0.047751237 -0.019442232 -0.015399822
0.015231928 0.055843744 -0.001425559 0.02905985 0.0045560827 0.0336302 0.003673298 -0.041728828
0.06429666 -0.03769614 -0.058417097 0.026428957 -0.019970743 -0.04739196 0.019747503 -0.0038180978
-0.0029725279 -0.0421618 0.0067579914 -0.048427206 -0.0014568034 0.04420452 -0.027918568 0.029959992
-0.05753357 0.03866529 -0.05303901 -0.05392947 0.0043461653 0.033877753 -0.023114292 0.04730412
-0.007790379 -0.014555974 -0.021026295 0.029572098 0.061108902 0.03478803 -0.014704753 -0.025350837
0.0083509935 0.0048611625 0.033392463 -0.054630697 -0.030105397 -0.018702159 0.047549985 0.049289767
0.0075018164 0.05321699 0.032161295 0.009477993 0.03468781 -0.010000333 -0.019233933 0.023803722

action_net.weight f4 [5, 64]
00000000: fccb 49bd de0b ccbd ea7c a13d 5ae6 05bd
00000010: 9ddf bcbd 9911 d8bc af95 7b3e 4f99 02be
00000020: 605e 31be 3dd2 99bd e60d 44be fca8 a6bd
00000030: 878e b73c e8ed 5c3d e49d 33bc 109f fe3d
00000040: 7ddc 6ebe 914c 843d 1210 993d 5013 a1bd
00000050: e8f8 233e 8b27 643d 1492 23bd 4d41 a3bc
00000060: 6183 afbb 2b7b 4b3c 4bf8 07be c57c a73d
00000070: ae01 68bd 0ac0 99bd d07e 7f3d 3768 8cbd
00000080: de03 033d 8004 50bc b571 5b3e cbcc 383d
00000090: 6f23 b83c 73d6 083e a862 933d 11e4 bbbd
000000a0: 04e0 bebd c4e4 ec3d c105 d93c f357 58bd
000000b0: 68fd 44bd 405d ccbb a104 04be 8e52 9f3d
000000c0: ae1f 553d afe0 6a3e b6e3 f5bd a92c a73d
000000d0: 0ec5 1a3e a0a2 ed3d fdb5 b2bd 9b42 57bd
000000e0: 9932 833d 806b cbbc 1238 acbd f068 eabd
000000f0: fa54 efbc f6be ee3d 22d8 813e ca06 d4bd
00000100: 9fe0 533d 56a0 cd3d 1cac a5bd e593 073d
00000110: 1107 c03d 0c11 c13c 915b 7fbe 0fe9 013e
00000120: 34ea 313e 4ac5 963d 45bf 423e a7e5 9f3d
00000130: 554a cdbc c2ce 62bd 94db 163c d8cf f7bd
00000140: 3c04 713e cd18 81bd c308 9abd bb65 a03d
00000150: 5d6f 24be a10d 5bbd 957e 1e3d e785 a53c
00000160: 4f2c c93b 41eb 75bc 9472 093e 137c a4bd
00000170: d5ad 593d 7fec 963d c5d1 76bd ff12 8f3d
00000180: 5130 08bd b54c 643c d452 5fbe 9ecd 31bd
00000190: 1e0f b3bc 64b9 07be c0bd 8dbd 999e b93d
000001a0: 0a99 bf3d ed68 efbd f164 e3bc b5ad 543d
000001b0: afea 3a3d f562 073c 2670 023e 3b57 9cbd
000001c0: 699c 56bd 5864 6abe 9d5c f53d b629 a6bd
000001d0: 7ab5 19be a57a f2bd d076 b13d 7734 5c3d
000001e0: 6f14 86bd f5bb d43c dbcb a53d 99be ed3d
000001f0: 30a4 003d fbf1 f0bd dbd2 81be 6008 d53d
00000200: 06e5 83be d5d1 edbc bb58 fe3d 57ee 803e
00000210: 5b42 eb3d b5b4 f3bc 9398 8e3d 65ea 99bd
00000220: da86 913c bec2 fe3d b6f3 ecbd f941 153d
00000230: da58 863e 833b b23e df72 b23e 1371 723d
00000240: 9af5 d33c 2ba6 a0be 7c65 f3bd 1ab2 e5bc
00000250: 4b49 dbbe f810 f5be 7601 f33e 7b16 7ebe
00000260: 8465 d6be dd84 47be e379 dcbd 4858 a0bd
00000270: 0ec0 96be 4318 723d e587 72be b991 c43e
00000280: 8c27 cebd 8ded 183e 31ec 62bd ac86 81bd
00000290: 75a9 ee3e 4487 373e aac2 e8bd 817b e03d
000002a0: ba2a 66be a2f8 f7be ff89 cabc 10ec 4ebc
000002b0: bb91 683d 667d 963d 1f81 31be 1302 aebd
000002c0: ad05 073e e3ee 4fbc 201a 8bbc 2db0 85bd
000002d0: fc11 e4be 9330 c2ba 9901 053e e718 f33d
000002e0: 73f7 213e c436 093e cf11 563d ffc4 db3e
000002f0: ff70 cb3e dab8 bc3e 9132 133d a0e4 7d3d
00000300: e554 6cbd f859 17be 7308 943e 0254 2f3b
00000310: e2e8 43be 489a 48be 1c3b 073e e7b6 b33d
00000320: e3cf 41be 599b 71be 698c ccbd 487a 56be
00000330: 80e4 ae3d 58a1 bfbb 2774 063d 7add 873d
00000340: 71dd ecbd 5979 32bd e7de 403e 53e5 8abe
00000350: 0899 033d e282 a9bc bfe0 ee3b 1800 05be
00000360: 5a46 00be 2e5f dcbd b411 68be 80fc 253e
00000370: e465 0dbe d619 6fbe 22d5 8a3d 427b 433d
00000380: a3d5 3a3e fcd3 3fbe b6cb 99bb 8be2 283e
00000390: 5da3 f73c bd94 9f3d 8866 4c3e ce5b 16be
000003a0: e626 1abe a1a0 febc 7df8 333e 7202 5ebe
000003b0: 6733 79be cbbf 45be 0907 0cbe de62 4a3e
000003c0: d4d0 103e 643e 03bc 8041 7abe a9d7 553e
000003d0: f9f4 e5bd 0b6d 133e ee2a 51be 1bb5 34be
000003e0: 9acf cfbc ebed c0bd 93a9 72be bd6c 9d3d
000003f0: 4850 ea3d 9836 143d cbf3 333c d7f5 31be
-0.0492668 -0.09963201 0.078851536 -0.032690383 -0.09222338 -0.026375579 0.24568819 -0.12753795
-0.17321157 -0.07510803 -0.19145927 -0.081377 0.02240683 0.053937823 -0.010962937 0.124326825
-0.23326297 0.064599164 0.07473768 -0.07865012 0.16012919 0.055701774 -0.039934233 -0.019928599
-0.0053562378 0.012419502 -0.1327831 0.08178095 -0.056642227 -0.07507332 0.062376797 -0.06855815
0.03198611 -0.012696385 0.21430095 0.04511718 0.022477834 0.13363056 0.071965516 -0.091743596
-0.09320071 0.11567071 0.026492001 -0.05281825 -0.04809323 -0.006236702 -0.12892391 0.07779418
0.052032165 0.22937272 -0.12006323 0.08162815 0.15114233 0.11603284 -0.08726118 -0.052553754
0.06406135 -0.024831533 -0.08409132 -0.114457965 -0.029215325 0.11657517 0.2536021 -0.103528574
0.051727887 0.10040347 -0.08089468 0.033100028 0.09376348 0.023567699 -0.24937274 0.12686561
0.17374498 0.07361849 0.19018276 0.078074746 -0.025059858 -0.05537296 0.009207625 -0.1210019
0.23536772 -0.063035585 -0.075212024 0.078319035 -0.16058107 -0.053479794 0.038694937 0.020205451
0.006139315 -0.015009702 0.13422614 -0.08031478 0.053144295 0.07369327 -0.060258646 0.06986045
-0.033249203 0.013934304 -0.2180894 -0.043408982 -0.021857794 -0.13254315 -0.069209576 0.09063453
0.09355362 -0.11689935 -0.027758094 0.051923472 0.045633968 0.008263339 0.12738094 -0.076338254
-0.052395258 -0.2288984 0.11980555 -0.081134245 -0.15010634 -0.11839799 0.0866524 0.053760972
-0.06546866 0.025968531 0.08095523 0.11608619 0.03140658 -0.11764904 -0.25356182 0.10401988
-0.2576067 -0.02903072 0.12419268 0.2518184 0.11487266 -0.029749254 0.06962695 -0.0751541
0.017764498 0.12439488 -0.11569922 0.03643987 0.26239663 0.3481103 0.34853265 0.059189867
0.025873948 -0.31376776 -0.11884591 -0.028039027 -0.42829356 -0.4786451 0.47462052 -0.24813263
-0.41874325 -0.19484277 -0.107654355 -0.07829338 -0.294434 0.05910517 -0.23684652 0.38392428
-0.10066137 0.14934368 -0.05540103 -0.06324515 0.4661366 0.17922693 -0.11365254 0.109610565
-0.22477236 -0.4843188 -0.024724005 -0.012629524 0.056779604 0.073481366 -0.17334412 -0.084964894
0.13185759 -0.012691232 -0.01698023 -0.065277435 -0.4454497 -0.0014815502 0.1298889 0.11869984
0.1581705 0.13399798 0.052263077 0.42923734 0.39734647 0.3685978 0.035936896 0.061985612
-0.05769815 -0.14780414 0.28912696 0.0026752953 -0.19131806 -0.19590104 0.13206142 0.0877512
-0.18926959 -0.23594417 -0.099877186 -0.20945084 0.08539677 -0.005848091 0.032825615 0.0663404
-0.11565674 -0.043572757 0.1883503 -0.27128085 0.032128364 -0.020692293 0.0072899754 -0.12988317
-0.12526837 -0.107603416 -0.22663003 0.16209602 -0.138084 -0.233497 0.06778933 0.04772497
0.18245558 -0.1873321 -0.0046934737 0.1649267 0.030229265 0.077920415 0.19960988 -0.14683458
-0.15053901 -0.031082453 0.1757526 -0.2168062 -0.24336015 -0.19311444 -0.13674559 0.19764277
0.14142162 -0.008010481 -0.24439049 0.20883049 -0.112283655 0.14397065 -0.20426533 -0.17647211
-0.025367547 -0.09420379 -0.236975 0.07686756 0.11441094 0.036184877 0.010983418 -0.17378937

action_net.bias f4 [5]
00000000: efa8 89bd f4a8 893d bd13 eb3d 4b71 48be
00000010: 2880 363d
-0.06721675 0.067216784 0.11478374 -0.19574468 0.044555813
