model_curriculum/6. NoFrameStack BigSlowPlat with TimeLimit/noframestack_curriculum_game_2_plats_WITH_enemies_AND_BigSlowPlat.onnx (onnx, 42972 bytes, 6 tensors)

mlp_extractor.policy_net.0.weight f4 [64, 90]
-0.055722494 -0.022433966 0.089193106 -0.08790537 0.05432533 0.016532626 0.03348146 0.28810763
-0.062056374 0.11486917 -0.13101108 0.09436931 0.2826443 0.051138755 -0.032145616 0.10981065
-0.04602241 -0.01251412 0.06073538 -0.1066967 0.10227081 -0.012719953 0.23301168 0.21223539
0.07635083 -0.011661163 0.120359786 -0.026511114 -0.116139024 0.20281027 0.061258513 0.20904973
-0.27554518 -0.22040938 0.19090226 -0.035246447 0.0837379 -0.020360937 -0.033692457 -0.14145559
-0.11291348 -0.105291545 -0.015990296 -0.012880842 0.021945408 -0.27751794 -0.0076863207 -0.09495348
0.038486958 0.034837514 0.07018247 0.010343643 -0.038724396 0.026031444 -0.052129533 0.07667887
0.18536437 0.11332641 0.45236892 -0.07299747 -0.18239887 0.07314024 0.04458273 -0.11882288
-0.47372892 0.058220405 -0.042174272 -0.006046499 0.38720927 0.1813087 -0.10622435 0.2712864
-0.248666 0.22492553 -0.11253471 -0.13696417 -0.1796663 0.060963154 0.021896135 0.07033284
0.15276542 -0.00042034264 0.28974637 0.07268126 0.10923782 -0.21923913 0.0076143537 0.18948208
0.016886069 0.19062103 -0.0960219 -0.23884353 -0.096093096 0.07191505 0.09834377 -0.1352505
-0.2149123 0.06236039 0.13432993 -0.11281066 0.09398741 -0.1285812 -0.041109994 -0.039170388
0.17994422 -0.13808793 -0.3961299 -0.23370636 -0.2407931 -0.29878908 -0.3244274 -0.21634564
-0.13129105 -0.2621081 -0.44719955 -0.3835763 -0.4579797 -0.22205177 -0.19337347 -0.031206982
0.1334325 0.09059625 -0.049831178 0.111128576 0.0341855 0.00504913 0.06590931 -0.11614964
0.027561272 0.056679558 -0.31127205 -0.014667238 0.16675237 0.21730417 -0.3283907 -0.09459454
-0.21457614 0.04983514 -0.2983197 0.3069311 0.0015575659 0.054190196 -0.087121874 0.16763727
0.0438705 -0.20778799 -0.07826022 0.17710233 0.020679912 0.04112269 -0.11580909 0.10398705
0.052654114 0.22564328 0.3201942 -0.54842556 0.41299725 -0.07201947 0.038131587 -0.3084931
0.34104025 -0.16478944 -0.0023483005 0.1916628 0.11550749 -0.027194632 -0.032900017 0.028144732
-0.17473382 -0.3252603 0.14341618 0.1384372 -0.3237858 0.2165686 -0.024124645 0.111335844
-0.13612872 0.23240423 0.06830232 -0.1398005 -0.1302587 -0.2002114 0.1072063 -0.11824648
-0.082764156 -0.15341735 0.16200833 0.041903622 0.05355058 0.14714941 0.21203977 0.005553445
0.006228846 0.018118408 0.11086171 0.24003172 0.12735036 0.1779812 0.2668044 0.15042761
-0.13226345 -0.1843771 0.49199986 0.17325774 0.052061982 0.1974488 0.59788793 0.017506292
0.14158362 -0.1317954 -0.08068776 -0.21328047 0.0067144646 0.03979291 0.2117816 -0.092314996
-0.07273538 0.050292302 -0.031045882 -0.20275086 -0.0108064925 0.037764844 -0.3788432 -0.08363639
0.051588733 0.08607647 -0.16131109 0.0874936 0.12781347 0.2169476 -0.032428857 0.111707985
-0.09818547 0.15962428 -0.32191846 -0.099634945 0.0590071 0.14413127 -0.14056754 0.0425643
0.06434568 -0.13137142 0.30397615 0.14366522 -0.12142572 0.19006623 -0.10001009 -0.021292375
0.16175534 0.18341608 -0.010946096 -0.18718909 -0.1521256 0.24309859 -0.031108817 -0.08481744
00000000: 453d 64bd 70c7 b7bc e0aa b63d bb07 b4bd
00000010: 3d84 5e3d 6e6f 873c db23 093d d882 933e
00000020: d32e 7ebd 8740 eb3d c527 06be b244 c13d
00000030: c1b6 903e df76 513d 1fab 03bd 68e4 e03d
00000040: ff81 3cbd 0608 4dbc a9c5 783d cd83 dabd
00000050: 5c73 d13d 5a67 50bc 9d9a 6e3e 3c54 593e
00000060: d35d 9c3d 760e 3fbc 317f f63d d62d d9bc
00000070: 4cda edbd 7fad 4f3e 35ea 7a3d 2211 563e
00000080: 4214 8dbe ffb2 61be e27b 433e 945e 10bd
00000090: c77e ab3d fbcb a6bc 1a01 0abd bcd9 10be
000000a0: 2f3f e7bd 18a3 d7bd 15fe 82bc 2b0a 53bc
000000b0: dbc6 b33c d516 8ebe 88dd fbbb f876 c2bd
000000c0: 80a4 1d3d c8b1 0e3d d4bb 8f3d 6278 293c
000000d0: 799d 1ebd e53f d53c c785 55bd d009 9d3d
000000e0: 28d0 3d3e ad17 e83d e69c e73e b37f 95bd
000000f0: c5c6 3abe 8dca 953d 619c 363d 6959 f3bd
00000100: 998c f2be 8578 6e3d eebe 2cbd b621 c6bb
00000110: 4b40 c63e fda8 393e 278c d9bd 0de6 8a3e
00000120: 4da2 7ebe e152 663e 9978 e6bd 5640 0cbe
00000130: 71fa 37be 80b4 793d 865f b33c aa0a 903d
00000140: 8a6e 1c3e 6f61 dcb9 a359 943e ead9 943d
00000150: 14b8 df3d 3980 60be d481 f93b 9707 423e
00000160: a754 8a3c 2932 433e 21a7 c4bd 6693 74be
00000170: 75cc c4bd 3348 933d 7568 c93d 1b7f 0abe
00000180: f811 5cbe 9c6d 7f3d c98d 093e 4609 e7bd
00000190: 797c c03d caaa 03be f462 28bd 2171 20bd
000001a0: 4c43 383e ec66 0dbe 8ad1 cabe b850 6fbe
000001b0: 7792 76be e2fa 98be 591b a6be b689 5dbe
000001c0: 2971 06be 0833 86be 57f7 e4be 1d64 c4be
000001d0: 517c eabe 8a61 63be b203 46be c9a5 ffbc
000001e0: 87a2 083e 878a b93d c71b 4cbd 6197 e33d
000001f0: 1806 0c3d 2c73 a53b 76fb 863d dddf edbd
00000200: 2dc8 e13c d328 683d 0d5f 9fbe db4e 70bc
00000210: 22c1 2a3e fc84 5e3e d322 a8be c8ba c1bd
00000220: d9b9 5bbe ef1f 4c3d 5cbd 98be 1326 9d3e
00000230: 3d27 cc3a 8af6 5d3d f46c b2bd 1ba9 2b3e
00000240: 8eb1 333d 60c6 54be e546 a0bd 505a 353e
00000250: eb68 a93c 4470 283d 512d edbd 2af7 d43d
00000260: d7ab 573d 080f 673e 7ff0 a33e 9e65 0cbf
00000270: 6074 d33e f27e 93bd de2f 1c3d cff2 9dbe
00000280: d49c ae3e 90be 28be f2e5 19bb 4143 443e
00000290: 318f ec3d 47c7 debc 2bc2 06bd c88f e63c
000002a0: 6ced 32be 8588 a6be b1db 123e 7bc2 0d3e
000002b0: 41c7 a5be 29c4 5d3e 0ca1 c5bc 0c04 e43d
000002c0: 5465 0bbe 60fb 6d3e 16e2 8b3d dd27 0fbe
000002d0: 8962 05be 3804 4dbe fa8e db3d 362b f2bd
000002e0: 4180 a9bd 7019 1dbe 83e5 253e 22a3 2b3d
000002f0: da57 5b3d 56ae 163e f420 593e acf9 b53b
00000300: 591b cc3b 0e6d 943c 770b e33d e0ca 753e
00000310: 2268 023e b440 363e 969a 883e b209 1a3e
00000320: 1270 07be 5acd 3cbe 68e7 fb3e 7a6a 313e
00000330: f23e 553d 0530 4a3e 2f0f 193f 5b69 8f3c
00000340: 4cfb 103e 60f5 06be a03f a5bd 3266 5abe
00000350: 0305 dc3b e4fd 223d 47dd 583e a50f bdbd
00000360: 49f6 94bd 4dff 4d3d ef53 febc ec9d 4fbe
00000370: b70d 31bc 4faf 1a3d bcf7 c1be 8e49 abbd
00000380: b54e 533d dc48 b03d bc2e 25be d82f b33d
00000390: 89e1 023e 8327 5e3e 1fd4 04bd 28c7 e43d
000003a0: 7715 c9bd 8c74 233e 7fd2 a4be 680d ccbd
000003b0: 6eb1 713d 2697 133e f0f0 0fbe e757 2e3d
000003c0: abc7 833d 3b86 06be c3a2 9b3e fa1c 133e
000003d0: 0cae f8bd b9a0 423e 17d2 ccbd 596d aebc
000003e0: 31a3 253e 6dd1 3b3e 4157 33bc 7fae 3fbe
000003f0: d0c6 1bbe d6ee 783e ebd7 febc c4b4 adbd

mlp_extractor.policy_net.0.bias f4 [64]
0.0062912256 0.024532745 -0.019871442 0.036228005 -0.042636663 0.04208931 -0.060295936 0.016559497
0.008636817 -0.031061072 0.00919083 0.11217946 -0.03674398 0.032325752 0.028777262 0.028050482
-0.007874444 0.012354769 -0.064249486 0.05307753 -0.029206 0.12044115 -0.03338464 0.025841447
0.041476417 -0.03320331 0.03657353 0.030242585 -0.0015191322 0.040939942 0.0051299375 0.0005789458
-0.0276402 0.031324938 -0.050238892 0.07481611 -0.05717148 0.06444689 0.008142246 -0.022478301
-0.010874525 -0.037957143 0.014602804 -0.18430056 0.047526248 -0.029333007 -0.00069583283 -0.029156342
0.052760966 0.029749224 0.10708958 0.06643017 -0.023269964 -0.02809227 -0.064823866 0.047296196
0.019238137 -0.020529855 0.022904286 0.038881227 8.6309985e-05 -0.049184415 -0.025640579 -0.055478197
00000000: a026 ce3b e5f8 c83c 6fc9 a2bc d163 143d
00000010: c8a3 2ebd d765 2c3d dff8 76bd c8a7 873c
00000020: 7081 0d3c ca73 febc 2395 163c 58be e53d
00000030: db80 16bd 0268 043d 4bbe eb3c 20ca e53c
00000040: d003 01bc a86b 4a3c 3c95 83bd d367 593d
00000050: 6c41 efbc daa9 f63d 55be 08bd 71b1 d33c
00000060: 2de3 293d 3200 08bd 20ce 153d 4cbf f73c
00000070: 9e1d c7ba a4b0 273d 0919 a83b 65c4 173a
00000080: b36d e2bc 944e 003d 4cc7 4dbd 3039 993d
00000090: a42c 6abd bbfc 833d 0e67 053c 6a24 b8bc
000000a0: 102b 32bc f378 1bbd 9940 6f3c 49b9 3cbe
000000b0: e2aa 423d c64b f0bc 8d68 36ba 48d9 eebc
000000c0: e21b 583d a5b4 f33c c851 db3d 8a0c 883d
000000d0: a7a0 bebc c321 e6bc 60c2 84bd a8b9 413d
000000e0: 4c99 9d3c 3a2e a8bc c5a1 bb3c ec41 1f3d
000000f0: 5201 b538 9975 49bd 310c d2bc 1b3d 63bd

mlp_extractor.policy_net.2.weight f4 [64, 64]
-0.39902014 0.035103638 -0.27519333 0.062547535 -0.12412992 0.07676173 0.2622063 -0.04066554
-0.27645314 -0.061535627 0.14675735 0.3400409 0.11919096 -0.07890128 -0.061165515 -0.117796905
-0.09701659 0.063935146 -0.23147458 0.00048381058 -0.16758735 0.36238673 -0.2343994 0.2715374
-0.22202092 -0.126981 0.030365005 -0.36666584 -0.0074031297 0.11494256 -0.3964443 0.071671136
-0.07162609 0.08214942 0.1380691 -0.21213646 -0.26009062 -0.18313278 -0.16676947 0.12796815
-0.28540057 -0.19543795 -0.10526792 -0.32532808 0.13054326 -0.16190726 -0.012668492 0.00046239974
-0.021088488 -0.25013793 0.26129338 -0.3104269 0.35652056 -0.23036467 0.14924867 0.011746709
-0.006053037 0.08832691 -0.16777992 -0.21353373 0.22276033 -0.18864793 0.2438961 0.20191129
-0.15502396 0.21765877 -0.17172489 0.28549755 0.051678836 -0.15957157 0.22849661 -0.07731881
-0.18884964 -0.2843292 0.0838266 -0.0783896 0.16350129 -0.2518257 0.21499632 0.13230495
-0.026796244 0.05703887 0.04961478 0.41779724 0.39876768 0.16477837 -0.12909317 -0.036165517
-0.37950122 -0.12699376 0.046143197 -0.05010927 0.0011829764 0.19421591 -0.12775682 -0.025813086
0.1746222 -0.102424376 -0.2595237 -0.040318914 -0.18551925 -0.04146927 0.2862823 -0.24131015
-0.04080733 0.03685535 0.032867342 0.22946334 -0.20569079 0.16131042 0.04999508 0.3334853
0.10510868 -0.06162225 0.2302821 0.10129086 0.09338159 0.030553278 -0.08783569 -0.025254533
0.018586643 -0.038890492 -0.115833536 0.37059766 0.010435099 0.011225004 -0.32903537 0.20800346
0.026466588 -0.021494428 -0.18666913 -0.17497459 0.08544946 -0.059225313 0.26184425 -0.2749423
-0.025622165 -0.058062855 -0.07019373 -0.15092437 0.019255908 0.18980566 -0.48866808 0.09307203
-0.33337212 0.11159634 0.15824218 -0.22314142 0.21615337 -0.07922587 0.3186268 0.20318954
0.1019907 0.00860184 -0.13987319 0.14393434 -0.20064978 -0.14817981 0.28152576 0.111736864
-0.053105872 0.27168125 0.11736248 0.2551414 0.18755105 0.06284813 0.20851529 0.17448947
-0.10144517 0.22767515 0.05075747 -0.054430522 -0.6054729 0.061847165 -0.08952739 -0.09328372
0.18379024 0.37238878 0.07772244 0.11552762 0.21673146 0.11606687 0.330947 -0.18940997
0.16337177 0.052625977 -0.10827589 -0.15671803 -0.0037277413 0.19950332 -0.014172391 0.12140652
-0.22120027 -0.055910807 0.072709836 -0.18225211 0.03731555 -0.08284324 -0.03415233 -0.25660223
-0.06661047 0.057169013 -0.038758125 0.25126034 0.24331503 -0.25314105 0.13847427 0.20293128
0.30326915 -0.1906659 0.14836808 -0.013860009 -0.13833313 -0.25038487 0.14946876 -0.079724886
0.1396842 0.19916102 -0.44218072 -0.12465803 0.108634904 -0.004791145 0.0788945 -0.03158892
0.2518586 -0.027186256 0.25565502 0.36966258 0.12687738 0.10004969 0.049895834 -0.058355093
-0.093642175 -0.01383037 -0.03533033 0.2038677 -0.32476938 0.3189928 -0.17495146 0.35280156
-0.1649858 0.098533824 -0.015983043 -0.069570474 -0.08097985 -0.25237513 0.019953651 -0.20716447
0.07198969 0.29521737 0.26655334 -0.22917493 -0.37692845 -0.00763668 0.074889205 -0.31908587
00000000: 5e4c ccbe d5c8 0f3d 24e6 8cbe ec18 803d
00000010: d437 febd 4135 9d3d e73f 863e e990 26bd
00000020: 448b 8dbe c80c 7cbd 8f47 163e d719 ae3e
00000030: 641a f43d ff96 a1bd b188 7abd 813f f1bd
00000040: a2b0 c6bd 6ef0 823d ac07 6dbe f5a7 fd39
00000050: 059c 2bbe c18a b93e 6506 70be f306 8b3e
00000060: 7459 63be 4f07 02be 08c0 f83c a0bb bbbe
00000070: f495 f2bb 0167 eb3d bffa cabe 51c8 923d
00000080: b3b0 92bd f53d a83d fc61 0d3e 4d3a 59be
00000090: 992a 85be 2987 3bbe 9ec5 2abe 150a 033e
000000a0: 0620 92be e320 48be b596 d7bd 6791 a6be
000000b0: 22ad 053e 04cb 25be 828f 4fbc 3e6e f239
000000c0: c4c1 acbc 1412 80be 3fc8 853e 46f0 9ebe
000000d0: dd89 b63e b7e4 6bbe a5d4 183e 4575 403c
000000e0: 8e58 c6bb bde4 b43d 80ce 2bbe 96a8 5abe
000000f0: 491b 643e ec2c 41be e6bf 793e d5c1 4e3e
00000100: 9abe 1ebe f1e1 5e3e a6d8 2fbe bc2c 923e
00000110: 30ad 533d bb66 23be 04fb 693e 5359 9ebd
00000120: cd61 41be 9993 91be 48ad ab3d ba8a a0bd
00000130: e26c 273e 4cef 80be ff27 5c3e f37a 073e
00000140: cc83 dbbc 97a1 693d de38 4b3d 85e9 d53e
00000150: 472b cc3e a9bb 283e 0031 04be 4b22 14bd
00000160: fc4d c2be a70a 02be a600 3d3d 613f 4dbd
00000170: 1a0e 9b3a 89e0 463e afd2 02be f775 d3bc
00000180: 29d0 323e dfc3 d1bd 4ae0 84be 7225 25bd
00000190: c2f8 3dbe aedb 29bd 9893 923e 021a 77be
000001a0: 9625 27bd a3f5 163d e89f 063d 70f8 6a3e
000001b0: 9ba0 52be 8f2e 253e a4c7 4c3d 96be aa3e
000001c0: 3843 d73d 9d67 7cbd 12cf 6b3e 9571 cf3d
000001d0: d93e bf3d de4a fa3c 33e3 b3bd 98e2 cebc
000001e0: 0443 983c a34b 1fbd 223a edbd fabe bd3e
000001f0: faf7 2a3c 14e9 373c 5377 a8be dcfe 543e
00000200: 75d0 d83c 1515 b0bc 3126 3fbe 8a2c 33be
00000210: 2000 af3d 3e96 72bd 7310 863e 3dc5 8cbe
00000220: 93e5 d1bc 51d3 6dbd bbc1 8fbd eb8b 1abe
00000230: 91be 9d3c 6a5c 423e b432 fabe 8c9c be3d
00000240: c0af aabe 9f8c e43d 3d0a 223e 2f7f 64be
00000250: 4f57 5d3e 2c41 a2bd 0d23 a33e eb10 503e
00000260: 80e0 d03d bbee 0c3c eb3a 0fbe 8663 133e
00000270: 2377 4dbe 73bc 17be 2524 903e 4cd6 e43d
00000280: 8b85 59bd ce19 8b3e bd5b f03d e5a1 823e
00000290: 620d 403e 85b6 803d 0885 553e 5ead 323e
000002a0: 7cc2 cfbd ad23 693e 11e7 4f3d 8af2 5ebd
000002b0: 4600 1bbf 7453 7d3d 235a b7bd 890b bfbd
000002c0: 8233 3c3e bea9 be3e f12c 9f3d bf99 ec3d
000002d0: daee 5d3e 78b4 ed3d e371 a93e b0f4 41be
000002e0: ee4a 273e 568e 573d c0bf ddbd b17a 20be
000002f0: 1f4d 74bb 994a 4c3e 5133 68bc fba3 f83d
00000300: 5382 62be bb02 65bd e5e8 943d 4ca0 3abe
00000310: 31d8 183d b7a9 a9bd 50e3 0bbd 5e61 83be
00000320: 126b 88bd 0e2a 6a3d d7c0 1ebd 32a5 803e
00000330: 9327 793e b49b 81be 33cc 0d3e 38cd 4f3e
00000340: 1846 9b3e ec3d 43be cded 173e 1715 63bc
00000350: 33a7 0dbe 7232 80be 570e 193e cd46 a3bd
00000360: 6009 0f3e def0 4b3e 8365 e2be b64c ffbd
00000370: fa7b de3d 0aff 9cbb 7193 a13d 6263 01bd
00000380: 9cf3 803e b6b5 debc 37e5 823e 6a44 bd3e
00000390: 25ec 013e dae6 cc3d 935f 4c3d c005 6fbd
000003a0: 78c7 bfbd c798 62bc 89b6 10bd b2c2 503e
000003b0: 2c48 a6be 0653 a33e 7a26 33be 68a2 b43e
000003c0: 0af2 28be 1acc c93d dfee 82bc f77a 8ebd
000003d0: c3d8 a5bd 5037 81be d775 a33c ec22 54be
000003e0: 556f 933d bb26 973e ae79 883e d5ac 6abe
000003f0: c4fc c0be 1d3d fabb 835f 993d 395f a3be

mlp_extractor.policy_net.2.bias f4 [64]
0.014579066 0.0070301807 0.014961725 -0.001715634 0.048887096 0.05079478 -0.026312882 -0.0118223
0.012828888 0.06547587 -0.008148162 0.037013855 -0.0308291 -0.00024909942 -0.014857615 -0.040775854
0.06698829 -0.004207037 -0.058892712 0.029894229 -0.0015609763 -0.015424546 0.0072549433 -0.031378716
0.007764886 0.019903436 0.008518593 -0.06384674 0.008980957 0.053089727 -0.016067935 -0.012372204
-0.060093038 0.039353788 -0.035756603 -0.05618237 -0.011913552 0.024184925 -0.027033206 0.057509813
-0.023850493 -0.005806149 -0.023113435 0.023658074 0.06260818 0.037794612 -0.044612654 -0.025811424
0.015013493 0.0017963443 0.033516053 -0.05959748 -0.033638213 -0.027804771 0.05276376 0.051755715
0.010214333 0.058505494 0.035198398 0.0050926656 0.010658805 0.02485631 -0.022194078 0.022224568
00000000: 09dd 6e3c 6e5d e63b 0622 753c 20df e0ba
00000010: d63d 483d 300e 503d 1d8e d7bc 52b2 41bc
00000020: 4230 523c 3718 863d de7f 05bc d79b 173d
00000030: 4f8d fcbc 8f99 82b9 5b6d 73bc 9504 27bd
00000040: 2831 893d 2fdb 89bb 7c39 71bd bee4 f43c
00000050: ac99 ccba 3cb7 7cbc e0ba ed3b f886 00bd
00000060: 9670 fe3b 880c a33c 9291 0b3c 14c2 82bd
00000070: dd24 133c 9d74 593d e7a0 83bc c9b4 4abc
00000080: 1e24 76bd 7031 213d 8475 12bd 7c1f 66bd
00000090: 0f31 43bc 771f c63c be74 ddbc 698f 6b3d
000000a0: 1c62 c3bc 8241 bebb 6358 bdbc 94ce c13c
000000b0: b838 803d 86ce 1a3d c2bb 36bd 7b72 d3bc
000000c0: 27fb 753c 5073 eb3a 2148 093d 7d1c 74bd
000000d0: 39c8 09bd d5c6 e3bc d01e 583d cdfd 533d
000000e0: 055a 273c 75a3 6f3d 322c 103d 60e0 a63b
000000f0: 45a2 2e3c 769f cb3c 5bd0 b5bc 4c10 b63c

action_net.weight f4 [5, 64]
-0.06726658 -0.08690894 0.098187245 -0.0114136115 -0.1093543 -0.0211601 0.24390069 -0.1624919
-0.19171803 -0.08481178 -0.19834156 -0.07166651 0.038969878 0.078319676 0.0045581455 0.12457263
-0.20334467 0.037915267 0.07592592 -0.08543179 0.14690378 0.027642632 -0.029639445 -0.028734015
-0.009366345 -0.0034729366 -0.14513071 0.0674583 -0.07225413 -0.052824978 0.07273657 -0.043342028
0.036076788 -0.020928867 0.17906713 0.045471013 0.04623427 0.13113135 0.07823289 -0.08314325
-0.105773576 0.097833596 0.04958592 -0.05273895 -0.048809033 -0.01950609 -0.13523537 0.089768775
0.077142365 0.25497478 -0.14677995 0.07366904 0.13866955 0.16572884 -0.10195628 -0.060867254
0.07797176 0.0039013433 -0.09273844 -0.12015368 -0.009228997 0.12616417 0.25835007 -0.110713825
0.06972765 0.08768035 -0.1002305 0.011823247 0.1108934 0.018352134 -0.24757251 0.16181968
0.19225137 0.083322 0.19706498 0.06836443 -0.041622713 -0.07975356 -0.0063134916 -0.12124758
0.2054493 -0.03635189 -0.07639984 0.085100636 -0.14735551 -0.02542109 0.028400777 0.029010791
0.010149606 0.0008831049 0.14657399 -0.06599218 0.0687564 0.05144476 -0.07061854 0.04464305
-0.0373398 0.022166584 -0.1828557 -0.043764655 -0.0456141 -0.13004512 -0.075476795 0.08203406
0.106126636 -0.0990621 -0.05085198 0.051846 0.046349462 0.021533683 0.13369235 -0.08831276
-0.077504985 -0.25450295 0.1465229 -0.07317506 -0.1376333 -0.16809411 0.10134769 0.062073894
-0.07937915 -0.0027643887 0.08960206 0.12178226 0.011420365 -0.12723538 -0.25830972 0.11120531
-0.46160656 -0.05079735 0.17511216 0.3753396 0.18168882 -0.012362309 0.0342054 -0.07073158
-0.011075817 0.1541291 -0.12543704 0.085001215 0.5023043 0.5687381 0.5380606 0.10383737
-0.07538988 -0.47724628 -0.1675658 -0.0043237344 -0.6398905 -0.7173826 0.7398444 -0.29063752
-0.64944464 -0.40786323 -0.09266245 -0.09875535 -0.5196784 0.04561057 -0.30963475 0.5252549
-0.14075242 0.19296086 -0.13902102 -0.086190246 0.70517325 0.31987035 -0.16678494 0.12248791
-0.33042902 -0.7097437 -0.021774163 -0.11524441 0.0721409 0.09476654 -0.25481695 -0.13020653
0.20583366 0.016880568 -0.04170912 -0.09610055 -0.67985874 0.048272543 0.14571431 0.15807055
0.12541889 0.15487108 0.050223026 0.6111551 0.6758192 0.5618543 -0.03475178 0.15170814
-0.05181659 -0.15708053 0.30654415 -0.0016932773 -0.21505523 -0.22538014 0.14528595 0.0931925
-0.1990697 -0.25871757 -0.1138407 -0.23451751 0.07436376 -0.010983102 0.023479182 0.078609124
-0.13199857 -0.040223923 0.2186632 -0.3025087 0.029348781 -0.013764093 0.007237488 -0.1510429
-0.12651084 -0.10034984 -0.25061825 0.17050876 -0.13779072 -0.25363564 0.069105715 0.041611105
0.21166976 -0.21404548 0.0131777385 0.19949953 0.024326302 0.07266816 0.22586803 -0.17425805
-0.15695763 -0.03343506 0.19912434 -0.2215555 -0.27717203 -0.2247543 -0.13313079 0.23003519
0.15918374 -0.014655791 -0.27306798 0.24151291 -0.1166362 0.14976658 -0.23586196 -0.20737343
-0.016505282 -0.112725355 -0.2654501 0.079061784 0.11485171 0.036613144 0.02424646 -0.20262943
00000000: 10c3 89bd 50fd b1bd 6516 c93d 2800 3bbc
00000010: 26f5 dfbd f257 adbc 1ac1 793e 4764 26be
00000020: bb51 44be ccb1 adbd 0d1a 4bbe e4c5 92bd
00000030: e19e 1f3d 1166 a03d 7f5c 953b ef1f ff3d
00000040: 9639 50be 0a4d 1b3d 0c7f 9b3d ddf6 aebd
00000050: f26d 163e cd72 e23c 6cce f2bc 9963 ebbc
00000060: 4c75 19bc 359a 63bb 259d 14be 9427 8a3d
00000070: f9f9 93bd 015f 58bd e9f6 943d 6987 31bd
00000080: 41c5 133d 0473 abbc 605d 373e d03f 3a3d
00000090: 2560 3d3d 4c47 063e 9138 a03d 0247 aabd
000000a0: d19f d8bd fb5c c83d 9b1a 4b3d cc04 58bd
000000b0: fbeb 47bd 3ccb 9fbc 247b 0abe b1d8 b73d
000000c0: d1fc 9d3d 0e8c 823e 7c4d 16be cbdf 963d
000000d0: 64ff 0d3e d2b4 293e 74ce d0bd f14f 79bd
000000e0: a8af 9f3d aead 7f3b a7ed bdbd 2213 f6bd
000000f0: 3835 17bc 2e31 013e 7646 843e eebd e2bd
00000100: 5fcd 8e3d c191 b33d a645 cdbd 4bb6 413c
00000110: 141c e33d 3757 963c a683 7dbe 0fb4 253e
00000120: 8bdd 443e baa4 aa3d 67cb 493e a602 8c3d
00000130: 947c 2abd d655 a3bd 68e1 cebb a750 f8bd
00000140: 4d61 523e b8e5 14bd 8577 9cbd 3e49 ae3d
00000150: 5de4 16be e43f d0bc bfa8 e83c 0aa8 ed3c
00000160: 884a 263c 2b80 673a 7e17 163e e826 87bd
00000170: 28d0 8c3d beb7 523d 74a0 90bd a1db 363d
00000180: 9ef1 18bd b296 b53c 863e 3bbe 9142 33bd
00000190: dad5 3abd 8c2a 05be 9493 9abd 7901 a83d
000001a0: ec58 d93d 12e1 cabd 2a4a 50bd 795c 543d
000001b0: efd8 3d3d 6867 b03c a6e6 083e 52dd b4bd
000001c0: efba 9ebd 364e 82be 190a 163e cedc 95bd
000001d0: beef 0cbe dd20 2cbe 618f cf3d 3241 7e3d
000001e0: 8991 a2bd bf2a 35bb 4981 b73d fa68 f93d
000001f0: 7c1c 3b3c fe49 02be 2c41 84be 9cbf e33d
00000200: b257 ecbe e210 50bd 9a50 333e 832c c03e
00000210: a20c 3a3e 488b 4abc f61a 0c3d b8db 90bd
00000220: 5877 35bc 05d4 1d3e 9172 00be 1e15 ae3d
00000230: 0497 003f d298 113f 57be 093f b0a8 d43d
00000240: 0266 9abd a059 f4be 5e96 2bbe 1dae 8dbb
00000250: ddcf 23bf 63a6 37bf 7166 3d3f 71ce 94be
00000260: 0142 26bf 73d3 d0be d0c5 bdbd 3f40 cabd
00000270: a509 05bf 26d2 3a3d 7288 9ebe 1b77 063f
00000280: 6721 10be 8897 453e 875b 0ebe 8384 b0bd
00000290: 3c86 343f 0cc6 a33e acc9 2abe f1da fa3d
000002a0: fe2d a9be c3b1 35bf bb5f b2bc 4305 ecbd
000002b0: 9cbe 933d f614 c23d 5e77 82be dc54 05be
000002c0: 0fc6 523e 1e49 8a3c 2fd7 2abd 5dd0 c4bd
000002d0: 390b 2ebf 6eb9 453d 2236 153e 3fdd 213e
000002e0: cf6d 003e 8696 1e3e a9b6 4d3d a974 1c3f
000002f0: 7d02 2d3f afd5 0f3f e257 0ebd 6159 1b3e
00000300: a23d 54bd b8d9 20be 5bf3 9c3e f5f0 ddba
00000310: 7037 5cbe 0dca 66be d7c5 143e b6db be3d
00000320: edd8 4bbe a176 84be 5025 e9bd 5c25 70be
00000330: 074c 983d 78f2 33bc 6a57 c03c d2fd a03d
00000340: a22a 07be d7c1 24bd 3fe9 5f3e 6ce2 9abe
00000350: db6c f03c ca82 61bc 7328 ed3b fdaa 1abe
00000360: 0f8c 01be 3884 cdbd 0951 80be d999 2e3e
00000370: 0319 0dbe 88dc 81be 4c87 8d3d 6870 2a3d
00000380: f5bf 583e bd2e 5bbe 71e7 573c 9b49 4c3e
00000390: f447 c73c 0bd3 943d f349 673e b470 32be
000003a0: 80b9 20be 34f3 08bd 40e7 4b3e 72df 62be
000003b0: 7ee9 8dbe fe25 66be 7053 08be 588e 6b3e
000003c0: 1001 233e d81e 70bc 91cf 8bbe 294f 773e
000003d0: f6de eebd 695c 193e cc85 71be b359 54be
000003e0: 1636 87bc 8ddc e6bd 13e9 87be 25eb a13d
000003f0: 6037 eb3d aaf7 153d 83a0 c63c 177e 4fbe

action_net.bias f4 [5]
-0.07777823 0.077778295 0.1474214 -0.23324157 0.04818205
00000000: 314a 9fbd 3a4a 9f3d a3f5 163e e1d6 6ebe
00000010: 8b5a 453d
