model_curriculum/7. BeastLevel/BeastLevel.onnx (onnx, 53726 bytes, 6 tensors)

mlp_extractor.policy_net.0.weight f4 [64, 132]
000000 96 17 60 3e 2b e5 f6 bd 89 e8 8d 3e 8b 44 14 3b
       0.21883997 -0.12055429 0.27716473 0.0022623863
000010 80 cc a5 bd ea 20 d3 bc 06 7a eb 3d 02 c5 2f 3e
       -0.08095646 -0.02577253 0.114978835 0.17164996
000020 21 91 0b be c6 44 2d 3d ee 62 75 3d ce d7 e8 bc
       -0.13629581 0.042301916 0.0599088 -0.028423216
000030 01 12 36 bd 51 fd 8f 3d b3 af 5d 3c 25 98 82 3d
       -0.044450764 0.07030738 0.0135306595 0.063766755
000040 2e 68 87 3e 53 ac 43 3d f0 41 8f 3d 99 dd 2f bd
       0.2644667 0.047771763 0.069949985 -0.04293594
000050 a0 ca 20 3e 18 8c 02 be 30 51 db bc b2 41 5c be
       0.15702295 -0.12748754 -0.026772112 -0.21509436
000060 e9 9c 9d bd b1 19 0a 3e 5a 78 c4 bc 5c 59 2b 3e
       -0.07695944 0.13486363 -0.02398317 0.16733307
000070 0d 74 8d 3d aa 60 0f be e1 67 23 3e 36 b4 ce 3c
       0.069069006 -0.14001718 0.15957595 0.025232416
000080 c7 2e 53 3e a3 8d 2a 3d 10 89 38 3e 1d 3d ff 3c
       0.20623313 0.04163898 0.18021035 0.03115707
000090 84 fa f9 3d ef 11 db 3d 83 66 d8 3d 21 75 67 bd
       0.12205985 0.1069678 0.105664276 -0.056508187
0000a0 69 f7 c7 bc 06 14 50 3d 49 40 dd bd cf 30 ac 3c
       -0.024409967 0.050800346 -0.10803277 0.021019368
0000b0 92 59 a8 bc 21 b6 02 3e a8 a5 04 3e 7a aa 88 3d
       -0.020550523 0.12764789 0.12953818 0.06673141
0000c0 04 c3 c5 bd 71 36 29 3e 5f cc 90 3c 38 d4 a8 3d
       -0.09656337 0.16524674 0.017675577 0.082436025
0000d0 e8 13 7c bd 40 ab 6e be ed 94 c6 bd 5c 61 01 3c
       -0.06154242 -0.23307514 -0.09696374 0.007896747
0000e0 d8 ec 6a bd c3 76 07 3d 1e b5 f0 3d 53 d0 11 be
       -0.057354778 0.033072244 0.11753295 -0.14239626
0000f0 ab f0 dc bc 89 da 39 bd c4 f8 80 be 5f e7 c5 3d
       -0.026970228 -0.045374427 -0.25189793 0.09663271
000100 9f c1 76 bd 32 ad 9c 3d c6 f6 9a 3e 7a 01 c4 bd
       -0.060243245 0.07650222 0.30266398 -0.09570594
000110 1d 95 30 3e b2 af 00 3d 6a b4 c3 3d 6c bf 19 3c
       0.17244382 0.031417556 0.095558956 0.009384017
000120 20 a7 4e be d4 ad 64 be a3 53 a3 bb d5 df c7 bc
       -0.2018094 -0.22331935 -0.0049843355 -0.024398724
000130 75 48 d0 3d 16 76 70 3d a3 20 c2 3d 9d 93 a5 3e
       0.1017007 0.058706366 0.09478881 0.32339182
000140 c6 6b 72 bc 6a d2 7f bc fe 3e 9b 3c 73 1c 04 be
       -0.014796203 -0.015614131 0.018950935 -0.12901478
000150 ea 89 06 bd 78 6d 72 bd c1 20 1a 3e b9 d0 ae bd
       -0.03284637 -0.05918643 0.15051557 -0.085359044
000160 ac 0f 0f be 6b c4 0b 3d 36 1d c7 3d e7 e9 94 3d
       -0.13970822 0.034122866 0.097223684 0.07271176
000170 ac a8 a1 3e 79 37 12 3e 4a cf 95 3d dd 8c b0 bd
       0.31574 0.14278974 0.07314928 -0.086206175
000180 69 9b 96 bd b0 eb a4 bd d1 72 c4 3d ea 6d 61 3d
       -0.07353861 -0.08052766 0.09592212 0.055036463
000190 0c 87 ea 3d 93 98 03 3d cb 0a 65 be 24 8f 61 be
       0.114515394 0.032127928 -0.22367398 -0.2202726
0001a0 3b 45 ef bc e4 68 2e 3b 30 9d 8d 3d 51 ef 03 be
       -0.029207816 0.0026612813 0.06914747 -0.1288426
0001b0 7a 47 91 bc b6 5d a9 3d 53 1d 66 be e4 a9 86 be
       -0.017734278 0.08269827 -0.22472124 -0.2630149
0001c0 ea 4f 3a be 31 a5 ad bd 33 43 f6 3d 4d 43 c7 3c
       -0.18194547 -0.084787734 0.12024536 0.024324084
0001d0 29 58 18 3e 91 ec 4c be a3 30 84 3c 55 9d b8 bd
       0.1487738 -0.20012118 0.016136473 -0.09014384
0001e0 86 72 7d be 26 0e 3d 3d 47 36 09 bd 67 fc c5 bd
       -0.24750718 0.04615607 -0.03349903 -0.096672826
0001f0 a8 71 0a be 81 f5 93 bb 7b 4b e3 3c ad f5 35 3e
       -0.13519919 -0.0045153503 0.027745953 0.17769499
000200 39 18 98 3c 74 1b ca 3d 75 d3 ce 3d b5 4d 71 3d
       0.018566238 0.098685175 0.10098926 0.058911998
000210 c9 66 94 3c a5 81 6e be c0 bb d3 3d 3b b5 f3 3d
       0.018115418 -0.23291643 0.10338545 0.11899801
000220 e0 8d bf ba 2a 29 8a 3d a8 af d9 bd c9 a1 5b bd
       -0.0014614426 0.06746133 -0.10629207 -0.053621087
000230 ab 8a 2d 3e ec 6b 11 3d ff 7a b6 be e5 f9 2a 3e
       0.16947429 0.035503313 -0.35640714 0.1669689
000240 9b c1 2c 3d 02 99 a7 3d 63 29 6f 3d 6f 8d c2 3d
       0.042176824 0.08183481 0.05838908 0.094996326
000250 bf ba 47 be cd 20 17 bd ab 6e f0 3d 09 ea 81 bc
       -0.19504832 -0.036896516 0.11739858 -0.015858667
000260 61 a5 4b 3e 50 b0 3e 3e b0 62 d0 3d b8 1f 62 3e
       0.19887306 0.18621945 0.10175073 0.22082412
000270 82 d1 2c 3e 0f 15 e3 3d 3c 68 1d bd 4b 91 ea bd
       0.16876796 0.11088001 -0.038429484 -0.11453494
000280 00 20 9a bd 66 cf 8d bc ab 19 bc 3b 8f 92 7e 3d
       -0.07525635 -0.01731081 0.0057403645 0.062151488
000290 b1 1d a3 bd fe 1d 46 3d 6b d6 51 3e 38 65 90 3d
       -0.079646476 0.048368447 0.2049195 0.07050556
0002a0 7b 66 20 bd 2c 12 f1 bd 92 16 25 bd 69 47 bf bb
       -0.039160233 -0.11771044 -0.040304728 -0.00583737
0002b0 76 54 c9 3c 50 bc 7e 3d c9 85 1a 3e a3 70 db 3d
       0.024576407 0.062191308 0.15090097 0.10714843
0002c0 cb 33 0b 3e 38 95 91 3d b7 97 80 3d a6 b7 84 bc
       0.13593976 0.07108539 0.06278937 -0.016200852
0002d0 32 30 7f be 30 41 4b be cd 34 65 be 64 da e6 bd
       -0.24920729 -0.19849086 -0.22383423 -0.112721235
0002e0 25 7b 6c 3e af 7a 0d 3e 79 9c ac 3c dc 00 5f bc
       0.23093851 0.13816331 0.021070706 -0.013611045
0002f0 20 11 af bc 90 27 61 bc e7 c9 e7 3c 75 e0 eb bd
       -0.02137047 -0.013742343 0.028294517 -0.11517421
000300 ad 6a c8 3d 9a 0f 0a 3e 40 6c ce bd 60 0d cd bb
       0.09785972 0.13482514 -0.10079241 -0.006257698
000310 08 5f aa 3e ad 9e e7 3d fc 3a 99 bc 52 68 d5 bc
       0.33275628 0.11309562 -0.018704884 -0.02605072
000320 9e 75 f8 3d e1 8f 45 bd d3 6f 97 bd 92 6c 0e 3e
       0.12131809 -0.048232917 -0.07394376 0.13908604
000330 2f c7 19 3e 95 8d 9f 3c 82 92 2d 3e b7 60 43 be
       0.15017389 0.019476691 0.1695042 -0.19079863
000340 ef f6 d6 3d 9a 0b 91 3d d4 cb 39 3e 5c da 05 be
       0.104963176 0.07082291 0.1814416 -0.13071579
000350 9b fb d0 bd 56 25 29 3c ef 74 ad 3d 33 25 cd 3c
       -0.1020424 0.010323843 0.08469569 0.025042152
000360 d8 61 1f be 03 f0 1c be df b0 81 3e 48 11 de 3d
       -0.15564668 -0.15325932 0.25330254 0.1084314
000370 3e 00 b4 3d df a1 5a 3d 33 0f 83 3d 9d 6d a9 3e
       0.08789109 0.05337703 0.063993834 0.3309144
000380 85 0e 04 3e 5f 06 84 3c 9b 19 61 be 7f 72 77 3e
       0.12896164 0.01611632 -0.21982424 0.2416477
000390 42 35 fc 3d 2e cf 13 3d 9e 77 62 3e 72 2a 94 3d
       0.123148456 0.036086254 0.22115943 0.07234658
0003a0 3f a7 03 be 58 bb de bd 13 dd 09 3e c6 eb 89 be
       -0.12856768 -0.10875577 0.1346324 -0.26937693
0003b0 77 96 88 3d 0d 77 a5 3d c2 ac f3 bd 6b bb 8e 3e
       0.06669324 0.08079348 -0.11898185 0.27877364
0003c0 e1 92 84 be cf c0 b3 bd 1a 7e 06 3d a0 fc 53 3d
       -0.2589331 -0.0877701 0.032835104 0.051754594
0003d0 ab 6d 75 3e 6a f8 7d bd 05 20 b7 bc 23 6c 63 3e
       0.23967616 -0.062004484 -0.022354135 0.2220922
0003e0 96 6c b7 bd e3 14 a1 bd 69 25 70 3c 55 ba 0b be
       -0.08956258 -0.07865312 0.014657357 -0.13645299
0003f0 86 41 92 bc ba 9e 98 3b b4 64 e5 3d 7d 2b 9c 3d
       -0.01785351 0.0046575936 0.11200848 0.07625482

mlp_extractor.policy_net.0.bias f4 [64]
000000 f9 0f 8d bc 38 bb d4 3a 8d 99 6e bc 74 0d 1f 3d
       -0.01721953 0.0016230112 -0.014562977 0.03883119
000010 dc 8c 2a bc c0 0c 74 3c 5f 18 8b 3b bb 12 17 bc
       -0.01040956 0.014895618 0.0042448486 -0.009220774
000020 89 fd 6d bb dd 0c 13 3c ee 3b aa bc 58 9d a4 bc
       -0.0036314449 0.008975235 -0.02078053 -0.020094559
000030 47 c7 59 3c 58 fa c4 bc 8b c2 40 bc 87 a9 0b 3c
       0.01329214 -0.024045154 -0.011765133 0.008524305
000040 1f b8 82 3b 7b ac 89 bc f5 8a a3 bc 78 49 97 bb
       0.003989234 -0.016805878 -0.01996372 -0.0046169125
000050 c8 95 a3 bc 9d 94 98 3b 8b f9 fc 3b 8c 69 37 bc
       -0.019968882 0.004656388 0.0077201775 -0.011194598
000060 93 dd 75 3c 2e 88 bf 3b c2 af e0 b8 0d ed 07 3c
       0.015006441 0.0058450913 -0.0001071389 0.008296263
000070 09 18 de ba 71 2d f6 3b 8c cc 8e ba 9d dc 9e 3b
       -0.0016944419 0.0075127413 -0.00108947 0.0048480765
000080 02 c5 7b 3b 45 95 75 ba de c6 be bb c6 73 a0 3c
       0.0038416986 -0.0009368251 -0.0058220467 0.019586455
000090 c0 7e 08 bd d4 2d 89 3b f3 c0 09 39 e5 af 16 3d
       -0.033324003 0.0041863713 0.00013137217 0.03678884
0000a0 61 73 63 bc 47 11 74 3c 3a ce cd bc ea e9 fd bb
       -0.013882489 0.014896697 -0.02512275 -0.007748832
0000b0 15 4a d1 bc 25 0a 1a 3a 71 3f 98 bc 75 d2 5f 3a
       -0.02554802 0.00058761454 -0.018584939 0.00085381354
0000c0 db 18 e7 3b df 90 9a bb 5c 34 86 3b 36 3f 9b 3c
       0.0070525235 -0.004716977 0.004095597 0.01895104
0000d0 a3 4b dd 3b e0 2e 40 3c 4c c0 c6 bb a4 01 99 bb
       0.0067534014 0.011729926 -0.006065404 -0.004669385
0000e0 9e b5 89 3c 2b ae 99 bc 00 3a 8e 3c c0 72 0a 3d
       0.016810235 -0.018759808 0.01736164 0.03380084
0000f0 52 3d 0f bc d9 89 ae 3c 02 8b 51 3b 86 0d 0e bc
       -0.008742647 0.021305965 0.0031973724 -0.008670216

mlp_extractor.policy_net.2.weight f4 [64, 64]
000000 59 f4 b1 bd ce 64 05 be 8a cf 69 3e b2 c7 9a be
       -0.08689184 -0.13026735 0.22833076 -0.3023048
000010 4a 69 2c 3e c5 da bc bd 7d 39 88 be 28 9a d9 bc
       0.1683704 -0.092214145 -0.2660636 -0.026562765
000020 fe c0 0f 3e b7 e6 03 bd fe 9f a2 bc 6c 12 5a be
       0.14038464 -0.03220245 -0.01985168 -0.2129609
000030 9d ba 36 be 94 f6 2f 3e 61 7d ad bd 09 ba b2 3d
       -0.17844625 0.17183906 -0.0847118 0.0872689
000040 94 7c 15 3e 30 2a 23 bd e8 d9 d4 3e 34 ba be bd
       0.14598304 -0.039835155 0.415725 -0.09312859
000050 7c d0 0b 3e e1 3f 24 be 94 81 ad 3d fb 04 cf 3e
       0.13653749 -0.16039993 0.08471981 0.40433487
000060 6e a8 d6 bd 2c db d6 3d 8a d9 01 3f 39 01 e5 bd
       -0.10481344 0.104910225 0.50722563 -0.11181874
000070 c9 67 e8 bd 39 88 4e 3e dc e9 c2 bc 58 58 21 3e
       -0.113479204 0.20169152 -0.023793153 0.15756357
000080 82 5d 83 be 2e 89 00 3e 83 ba 03 3e 9d ae 74 3e
       -0.25657278 0.1255233 0.12864117 0.23894735
000090 3e 63 17 bd de ee 62 be 78 e6 5b be 70 81 b2 3d
       -0.03695988 -0.22161433 -0.21474636 0.087160945
0000a0 4b ab 23 be bb 80 20 3e 9e b4 52 3c 42 f2 1c 3d
       -0.15983312 0.15674107 0.012860445 0.038316973
0000b0 a3 06 de 3d 32 fb e9 bd a5 c7 99 3e e6 4e 07 bd
       0.108411096 -0.11424865 0.3003513 -0.033034228
0000c0 83 f1 bf be 2a b2 bf 3d 58 4c 17 be af 8a de 3d
       -0.37488946 0.09360154 -0.14775217 0.108662955
0000d0 1b 2f 2e be 38 2c 0c bb a2 04 0e 3e 7b 8f 8d 3d
       -0.17010157 -0.002138866 0.13868955 0.06912132
0000e0 10 99 62 3c 4c be e6 3c be 1f 04 bd 6c ef 92 3e
       0.013830438 0.028166912 -0.032256834 0.2869829
0000f0 f6 91 62 3d cf a1 84 3e 7a cd ba 3c d2 48 99 3c
       0.05531498 0.259047 0.022803057 0.018711481
000100 a1 53 85 3d 34 10 0b 3f 7d 5d 3c 3e b9 fb 59 be
       0.065100916 0.543216 0.18395038 -0.21287431
000110 a5 5e a5 3d 1b 6e 95 bd 39 a3 61 3e 8d 57 49 3e
       0.08074693 -0.072963916 0.22034921 0.19662304
000120 b1 22 e3 3c ad cc 05 3e 13 af 6c be 58 3e ed bc
       0.027726503 0.13066359 -0.2311366 -0.028960392
000130 c8 af cd be 18 35 74 bb fd 6e e7 3c 66 2a 53 be
       -0.40173173 -0.0037263092 0.028251166 -0.20621642
000140 2f 3e 65 bd 11 e6 10 3d 30 60 41 3e 23 4b d3 3d
       -0.055967506 0.03537566 0.18884349 0.103170656
000150 a0 e4 12 3e 77 bc 47 3e 1e 58 09 3d 18 37 d8 3d
       0.14345026 0.19505487 0.0335313 0.10557383
000160 d8 fb a5 3e 6d 64 6e be 8a 05 ee bd 66 f0 6b bb
       0.32418704 -0.23280497 -0.1162215 -0.0036001443
000170 87 3c 35 bb f1 de 61 3e 2d 4b 98 3e 2b 35 41 3e
       -0.0027654485 0.22057702 0.29744855 0.18867938
000180 05 a6 22 3e 46 12 52 be 9c 4f 0a bf 15 d5 1b 3e
       0.15883644 -0.20514783 -0.54027724 0.15218003
000190 31 eb 44 3e 11 7d 1a 3e 2d 43 a3 3d a9 d2 8f 3d
       0.19230343 0.15086772 0.07971797 0.07022602
0001a0 5f b0 ee 3d 25 47 26 3e c1 66 98 3b f1 8b 48 be
       0.11654734 0.16238077 0.004650921 -0.19584633
0001b0 2d 7c c2 bd 11 73 dd 3c dd 8b 17 3e 02 ea 94 bd
       -0.09496341 0.027032407 0.14799447 -0.07271196
0001c0 35 e4 51 3e 84 32 34 bd 18 e2 a8 bd 27 94 a1 3e
       0.2049721 -0.043993488 -0.08246249 0.31558344
0001d0 16 a0 cc be 58 1f a5 bb e2 25 4b 3e d0 e1 26 3e
       -0.39965886 -0.005039137 0.1983867 0.16297078
0001e0 31 02 53 3e 40 23 f3 3d aa 57 3b be e5 2a 9e be
       0.20606305 0.11871958 -0.1829516 -0.308921
0001f0 fd ae 1b 3e 4e 31 9b bd f3 51 46 be 9f 27 f1 bd
       0.15203471 -0.075777635 -0.19367199 -0.11775135
000200 de 2f cc 3c 1d 70 9a bd 9a a0 57 3e 50 75 78 be
       0.024925169 -0.07540915 0.21057358 -0.24263501
000210 e9 af dc bd 18 4d c7 3d 0a 04 b7 3e a3 0f 4f bc
       -0.1077574 0.09731501 0.3574527 -0.012638005
000220 22 1e 35 be 8d 22 95 3d 9d a5 f0 bd 59 73 fa bd
       -0.17687276 0.07281981 -0.11750338 -0.12229032
000230 28 fc b5 3e c0 69 27 3d 13 99 23 be 91 5b 58 3e
       0.35543942 0.040872335 -0.15976362 0.2112868
000240 92 45 2c 3e a4 a8 ac 3d 87 c3 06 3e 4c 38 49 3e
       0.16823414 0.08430603 0.13160525 0.19650382
000250 9d de 0b 3d 33 9f 91 bd 73 23 a3 bd ee 0b 47 bd
       0.034147847 -0.07110443 -0.07965746 -0.04859536
000260 8a b3 2c be 22 33 81 bc 22 0a 16 bd 79 79 4e bd
       -0.16865364 -0.015771452 -0.036630757 -0.050408814
000270 6e 75 42 be 0a 81 11 be e7 8c 5b 3c 1a 30 30 be
       -0.18990108 -0.14209381 0.013400293 -0.1720585
000280 d3 97 ae 3e 2d 9d a8 3e 75 3e 7a be ed 7c 02 be
       0.34100208 0.32932416 -0.24437888 -0.12742968
000290 5f 1a 51 3e a0 5a ab be ba c6 e3 bd 26 c8 8e be
       0.20420216 -0.3346758 -0.111218885 -0.27887076
0002a0 f1 a3 f0 3d ef 15 00 3e 00 df e4 be f6 14 83 be
       0.11750019 0.12508367 -0.44701385 -0.2560193
0002b0 b3 f3 dc 3c 77 24 58 3e 15 81 8c 3b 12 b2 18 3e
       0.026971674 0.2110766 0.0042878487 0.14911678
0002c0 ed 23 35 bd 2e 67 c9 3d 24 d4 5b bd 78 ef 5a be
       -0.044223715 0.09834133 -0.05366911 -0.21380413
0002d0 52 cf 8a 3b a0 fd cf bd 10 36 6b be ba 39 9d 3d
       0.0042361403 -0.10155797 -0.22969842 0.07677026
0002e0 02 42 06 be df 01 bb 3a 89 80 91 be 12 3c 95 3e
       -0.13111117 0.0014267525 -0.28418377 0.29147393
0002f0 d0 af b6 be c8 33 1f 3e 77 ab f6 3d b5 06 03 3c
       -0.3568101 0.15547097 0.12044423 0.007997205
000300 2a 0c c1 bd db 76 fd bd 33 ff 1c 3e f9 24 6a 3e
       -0.09426148 -0.123761855 0.15331726 0.22865666
000310 c3 7c c0 3c 89 ea 59 be 9e d1 e5 3d 77 ae 9a 3d
       0.023496991 -0.21280874 0.11221622 0.07552808
000320 ff 52 8e be 4e dd 88 3d 06 5d 37 be 88 7b 42 be
       -0.27797696 0.066828355 -0.1790658 -0.18992436
000330 3b 16 37 3e 2d f9 16 3d 48 9e f9 bd 6b 2c d3 3e
       0.17879574 0.036858726 -0.12188393 0.41244826
000340 07 e6 aa 3e 6c cd 9e bd 26 8b a8 bd 6e 0e 7e 3e
       0.33378622 -0.07754025 -0.082296655 0.24810192
000350 36 69 6e be cb d5 a5 be 62 0d eb bd 73 a0 37 3e
       -0.23282322 -0.32389674 -0.11477162 0.179323
000360 58 8d c4 bd ea b4 09 3e 54 69 53 3e 88 06 9b bd
       -0.09597272 0.1344792 0.20645648 -0.07569605
000370 1f 2b 37 be dc ec 9a 3e 56 27 00 3c 66 e2 ea bd
       -0.17887543 0.30258834 0.007821878 -0.11468963
000380 2a 0c 65 3e 87 99 38 bd 0b 1e b5 3c f6 09 90 be
       0.22367921 -0.04506829 0.022109052 -0.281326
000390 95 9f 4e be b6 75 e4 bd 4f cd 41 3e 9b 36 c3 bc
       -0.20178063 -0.11155264 0.18925975 -0.023829749
0003a0 f3 f7 21 bd b2 33 a3 bc c6 fe 01 bd 58 f0 1d 3e
       -0.039543103 -0.019922111 -0.03173711 0.15423715
0003b0 57 c7 a0 3d d6 d5 ef 3d 72 28 7d bd b0 76 18 bd
       0.07850521 0.11710708 -0.06180615 -0.037222564
0003c0 16 c1 41 3d 90 ac 26 3e 81 da 57 be 7a 4c 4f be
       0.04730328 0.16276765 -0.21079446 -0.20244017
0003d0 aa 24 91 be 1c c1 91 3e b8 f4 9a 3e ea c8 1f be
       -0.28348285 0.28467643 0.3026483 -0.15603986
0003e0 cc a8 91 bd ee 90 81 3d 0c 28 e7 3e 31 ad 68 be
       -0.071122736 0.06326471 0.4514774 -0.22722317
0003f0 ac 53 8b 3d 4a e1 7b be e1 2a 48 3e 6c 32 89 3e
       0.068030685 -0.2459766 0.19547607 0.2679628

mlp_extractor.policy_net.2.bias f4 [64]
000000 b6 75 b0 bb 06 8f f8 3b 1d 97 36 3b c7 bc b6 bc
       -0.005385126 0.007585409 0.0027861067 -0.022306813
000010 d7 4f 06 bb 00 9e fd 3c 1b 13 c2 3c 45 0b 8d 3c
       -0.0020494366 0.03095913 0.02369075 0.017217288
000020 87 01 1d 3c 7f 4c 8b 3c 57 62 e6 bb 0e ab 91 3b
       0.009582884 0.01700425 -0.007030766 0.00444544
000030 9d 54 34 3c 94 4c 0c bc 52 2b 73 bb 12 18 c4 bc
       0.0110065015 -0.0085631795 -0.0037104678 -0.023937259
000040 cf 1c 64 bb 9c 7e 98 3c 9e e7 83 bc 74 15 bd ba
       -0.003480721 0.01861506 -0.016101655 -0.0014425949
000050 6b d6 18 bc f4 49 cb 3a 45 77 8b 3b 30 fc 75 bc
       -0.009328465 0.0015509711 0.0042561614 -0.0150137395
000060 38 23 de 3c 28 5c ce ba 55 98 f8 3c d8 f1 63 3a
       0.027116403 -0.0015744017 0.030346075 0.00086954003
000070 2e fb c3 bc 6f 3c a5 bc ba c8 69 3c 7c 55 fd 3b
       -0.023923483 -0.020170419 0.014269048 0.007731138
000080 98 be ba 3b 65 8c a7 3c 61 f9 84 b9 39 8f 5d bb
       0.00569899 0.020452688 -0.00025362804 -0.0033807291
000090 00 ae 12 bc 4b 7f 92 3c 14 3d 24 bc 6d 13 89 bc
       -0.008952618 0.017882964 -0.010024328 -0.016732896
0000a0 66 b8 e6 3b b4 33 0e bc 1a 2a be 3b 00 8b 61 bb
       0.007041025 -0.008679319 0.0058033587 -0.0034415126
0000b0 fa 75 a6 3a 6b cc a5 bc 03 21 6c 3c 17 77 c3 3c
       0.0012699955 -0.020239076 0.0144121675 0.023860497
0000c0 92 13 a5 3c 35 f3 ff 3b d9 97 b0 bc 4a c2 a7 3a
       0.020150933 0.007810975 -0.021556782 0.0012798992
0000d0 fe 5e 99 bc ac ac 38 3c d1 b6 b4 bb dd ea d9 3b
       -0.018722054 0.011271637 -0.0055149575 0.0066503123
0000e0 ec 4b 81 3c d3 a0 57 bc 88 5e a0 3c 22 4b e5 3c
       0.015783273 -0.013160902 0.019576326 0.027989928
0000f0 5f ef e6 bc 22 81 04 3c a4 05 8e 3c 9d 45 59 bc
       -0.028190313 0.008087428 0.017336674 -0.013261226

action_net.weight f4 [5, 64]
000000 28 ac 65 3d 35 1d 2a bd 74 c4 8a 3d 70 fa 82 3d
       0.056072384 -0.04153176 0.06775752 0.063954234
000010 9d 25 28 bd f2 59 a5 bd 6c 35 ab bd fa d2 13 be
       -0.041051496 -0.08073796 -0.08359799 -0.1443595
000020 c0 42 a0 bd bd 52 d2 bd 36 63 03 3e 77 4c 76 bd
       -0.078252316 -0.10269687 0.12830815 -0.060131516
000030 03 b8 8b bd be 60 eb bd a1 83 00 be 5f 1e cc 3d
       -0.06822207 -0.114930615 -0.12550212 0.0996673
000040 06 49 e0 bd 91 a7 95 3d fb 17 ca 3d 9f 4f 8e bd
       -0.10951428 0.073073514 0.09867855 -0.0694878
000050 1e ef a1 3d d1 6e 2a 3d 00 3f 67 3d 11 53 da 3d
       0.07906936 0.04160959 0.056456566 0.10660375
000060 ac 6f 35 bd af c1 86 bd b4 16 92 bd 76 36 99 bd
       -0.04429595 -0.06579911 -0.071332365 -0.07481091
000070 a8 2f d0 bc dd ab 8c 3d 14 36 ea bd 66 d4 8f bd
       -0.02541335 0.06868718 -0.11436096 -0.07022934
000080 c5 e8 de bd 54 97 db bd 78 32 17 bd ed 24 03 3c
       -0.10884241 -0.10722223 -0.036913365 0.008004409
000090 4e fc ff 3d 37 63 c0 3d 42 51 c4 3d ed 99 d6 3d
       0.12499295 0.09393924 0.09585811 0.10478578
0000a0 63 75 87 bd b4 0c 12 3e 45 cf db bd 35 eb 37 3d
       -0.066141866 0.14262658 -0.10732893 0.044902045
0000b0 b5 bd b7 bd 10 90 cf 3d 42 56 b2 bd 9f ca ba bd
       -0.089717306 0.101348996 -0.087078586 -0.09120678
0000c0 53 ef 75 bc e0 69 69 bb 81 83 41 bc 86 36 5d 3d
       -0.015010673 -0.0035616085 -0.011811138 0.054007076
0000d0 f8 3a 9a 3d ff 8d d6 bd 47 0e bc 3c 58 4d 0f 3c
       0.07530779 -0.10476302 0.022956027 0.0087464675
0000e0 b9 da a8 bd e8 5e a2 3d d4 ac 3b be 41 d6 4d bd
       -0.08244843 0.07928258 -0.18327647 -0.050253157
0000f0 b7 8c 56 3d f6 eb e1 3b 9c 67 92 bd e8 c9 1f bd
       0.05238029 0.006894584 -0.07148668 -0.039010912
000100 82 13 7c bd ed bd 2c 3d 23 0f 8d bd 98 16 81 bd
       -0.06154204 0.042173315 -0.06887653 -0.063031375
000110 aa 27 29 3d b8 a0 a4 3d 6b ca aa 3d 27 2f 13 3e
       0.041297592 0.08038467 0.083393894 0.14373456
000120 93 50 9c 3d 2d 06 d3 3d 9b 57 03 be 6c da 7d 3d
       0.07632556 0.10303912 -0.12826388 0.06197588
000130 96 10 8c 3d 34 dd eb 3d 93 21 00 3e e6 96 cf bd
       0.06839101 0.115168005 0.12512808 -0.101362035
000140 ac 4a db 3d 31 33 97 bd 37 3c ca bd 3a f2 8b 3d
       0.10707602 -0.07382811 -0.09874766 0.068333104
000150 e8 73 a2 bd c8 da 28 bd ad b1 66 bd 05 47 e6 bd
       -0.079322636 -0.04122427 -0.05632179 -0.11244015
000160 a6 82 2f 3d a0 4a 8d 3d 69 99 94 3d 8b 94 93 3d
       0.042849205 0.06898999 0.07255823 0.07206067
000170 6f 19 df 3c 4e 6a 8a bd 8f 2d e7 3d 25 59 8d 3d
       0.027233807 -0.06758557 0.112879865 0.069017686
000180 26 2f e3 3d 7b f7 e0 3d 37 f1 12 3d 4a 68 b3 bb
       0.11092977 0.10984703 0.03587457 -0.0054750787
000190 dc 5c fd bd 49 fc bb bd 96 38 c5 bd 27 f0 d9 bd
       -0.12371227 -0.09178979 -0.096299335 -0.106415085
0001a0 34 2f 87 3d 23 54 0f be 21 1a d6 3d 45 df 3b bd
       0.066008 -0.1399694 0.104542024 -0.045867223
0001b0 9c 60 b5 3d e1 84 d3 bd 5b de b3 3d ba ba bc 3d
       0.088563174 -0.10328079 0.08782645 0.09215303
0001c0 bb 61 80 3c 39 09 b0 3b 1a 3b 4a 3c 2d 33 5b bd
       0.015671602 0.005372193 0.0123431925 -0.053515602
0001d0 95 eb 9b bd 6c 01 dd 3d 94 af b9 bc 79 40 17 bc
       -0.07613293 0.10791287 -0.02266673 -0.00923168
0001e0 15 ec ad 3d 46 c1 a0 bd b0 67 3b 3e 37 85 53 3d
       0.08492295 -0.07849364 0.18301272 0.051640715
0001f0 cf 01 51 bd 3d 7c 1c bc f6 84 8f 3d 6a 66 20 3d
       -0.051027115 -0.009551105 0.07007782 0.03916017
000200 3b d1 f4 3d 1d 0c 39 bd 05 c8 b3 3d 86 ca d2 3c
       0.1195397 -0.045177568 0.08778385 0.025731336
000210 ac 39 bd bd 0d 18 d7 bd f8 cb 80 bd 0f dd 92 bd
       -0.09239516 -0.10502634 -0.06288904 -0.0717107
000220 69 7f ca bd a3 9f 9f bd a9 75 4d 3d 4f ea e4 bd
       -0.09887583 -0.0779412 0.050161038 -0.11177503
000230 e5 a9 7d bd 63 08 37 3c 6f ee a8 bb 97 a8 e4 3d
       -0.061929602 0.011171433 -0.0051553766 0.111649685
000240 2c e6 6b bd 31 18 3d 3d 7f f6 9c 3d 6a 0f aa bd
       -0.057592556 0.04616565 0.07664203 -0.08303721
000250 49 0b f8 3d bb db 05 bc 01 93 39 3d 67 c5 f9 3c
       0.121115275 -0.008170064 0.04530621 0.030489637
000260 69 76 4b bd 70 6e 89 bd 46 14 22 bd c6 15 89 bd
       -0.04967347 -0.067105174 -0.039570116 -0.06693606
000270 45 8a f6 bb 97 ff ce 3d 3c fa d8 bd 72 5b 3f bd
       -0.007523807 0.10107344 -0.105946034 -0.04671807
000280 c2 62 1b be a0 4d 15 be 9f 2c e0 bd a4 54 c3 3d
       -0.15174392 -0.14580393 -0.10946011 0.09537628
000290 bb 4c c6 3d 31 ad 0a 3d 18 bf 1a 3e 9b 95 03 3e
       0.09682604 0.033856574 0.15111959 0.12850039
0002a0 ae bd 06 be 83 78 00 3e 6b cf 06 be aa 91 89 3d
       -0.13158295 0.12545972 -0.13165061 0.06717236
0002b0 78 4a 99 bd 5b 20 03 3e 64 06 ed bd fc 3e 02 be
       -0.07484907 0.12805311 -0.115734845 -0.12719339
0002c0 90 a3 eb bc 98 a7 4f bd 01 5f ad 3d c6 2d f2 3d
       -0.028764516 -0.05069694 0.08465386 0.11825137
0002d0 2c 4c f8 3d c0 0b 06 be 46 9a f2 bd f8 44 eb 3d
       0.12123904 -0.1309042 -0.118458316 0.11487764
0002e0 4f 8f ea bd bb e7 cf bc ca 05 e9 bd 19 b3 84 bd
       -0.11453115 -0.025379052 -0.11378057 -0.06479473
0002f0 8c 65 07 3e ba 0c 87 3d af 22 01 be 07 c8 bf bd
       0.13222331 0.06594224 -0.12610887 -0.09364324
000300 2b e7 41 bd 97 d2 ef be f9 a3 53 3e de a6 aa 3e
       -0.0473396 -0.46840355 0.2066802 0.33330435
000310 90 e3 72 be 4b 07 22 3d d7 7c a2 3c 9b 55 a5 3d
       -0.2371962 0.039557736 0.019834919 0.080729686
000320 b9 30 bb 3d 8a 3e 90 3d 07 88 4e 3e 5e b9 45 bd
       0.091401525 0.070431784 0.20169078 -0.048272483
000330 c4 84 b8 be 4b 5f 1a bf 19 df 84 be f5 4b 74 bc
       -0.36038792 -0.60301656 -0.2595146 -0.014910688
000340 08 3a 5d be f0 04 45 3e 05 3c 8e bd 9e a4 aa be
       -0.21604168 0.19240165 -0.069450416 -0.33328718
000350 88 06 3b 3c 00 5e 09 bd d0 c1 90 3e 14 92 ae 3e
       0.011415131 -0.03353691 0.28272867 0.34095824
000360 19 2b b3 be fb 92 82 3d 89 e0 1e bd 7e 0e 43 be
       -0.34993818 0.063756905 -0.038788352 -0.19048497
000370 83 b8 ac 3e e9 32 f0 bd b3 52 c4 bc b2 b7 a9 be
       0.3373452 -0.1172846 -0.023965215 -0.3314796
000380 4f c2 0f 3e 6d 5b ae 3d 2d d2 c6 3d db ca 3e 3e
       0.14038967 0.08513532 0.097080566 0.1863207
000390 06 d4 f7 bb 85 de c8 be 41 82 09 be f1 d8 29 bc
       -0.007563117 -0.3923227 -0.13428594 -0.010366664
0003a0 c3 af cc b6 c9 96 a2 3d d7 3d 05 3e da 9c 91 3e
       -6.100135e-06 0.07938916 0.13011871 0.2843998
0003b0 95 eb 3f be 96 2c 92 bd 6b 6e f5 3d fb 2d 76 3d
       -0.18742211 -0.0713741 0.11983951 0.060102444
0003c0 11 83 d5 be 04 69 a8 be 61 ae 19 3c 8c 6b b9 3d
       -0.41701558 -0.3289262 0.009379954 0.09053716
0003d0 3f 01 17 bd 82 5c 99 3d 3b 6d 06 bd 56 c7 47 be
       -0.036866423 0.074883476 -0.032819014 -0.19509634
0003e0 79 a4 50 3d 7c a2 6b 3e d5 40 d8 3d a8 e6 ae bd
       0.050938103 0.23011202 0.10559241 -0.08540088
0003f0 2c b1 7a bd 94 e1 8d 3e 56 ea a5 bb c8 0c 95 be
       -0.06120412 0.27711165 -0.0050633354 -0.29111314

action_net.bias f4 [5]
000000 71 c0 be bd 7d c0 be 3d 96 75 15 be 24 e4 a0 3d
       -0.09314049 0.09314058 -0.14595637 0.07856014
000010 3e 1a 79 3d
       0.060816042
