model_curriculum/2. 2 Moving Plats No Enemies/curriculum_game_2_moving_plats_no_enemies_continued.onnx (onnx, 595934 bytes, 6 tensors)

mlp_extractor.policy_net.0.weight f4 [64, 2250]
-0.0043997047 0.027548453 -0.027631098 0.028264843 0.015344864 0.012640832 -0.009654384 -0.0027412288
0.015826307 -0.04787496 0.034681413 0.02360366 0.03581505 -0.019232698 -0.006525125 -0.018403528
-0.0009529945 0.009224688 0.015949098 0.0035027044 -0.03831016 -0.009340033 -0.06994245 0.016854022
-0.03747792 -0.03369021 0.07595519 0.015832106 -0.0046937387 0.009824316 -0.03626678 0.028948637
0.031606365 -0.05227951 -0.0135582695 0.012682497 0.06584899 0.014756103 0.049764212 -0.05112978
0.04410818 -0.022033298 0.027585365 0.014836348 -0.04203541 0.018187407 -0.020715334 -0.052846957
-0.019194867 -0.05074703 0.018172134 -0.0351692 0.033038866 0.001437151 -0.029645693 -0.026125733
-0.015593553 0.07007992 -0.022714574 0.04077854 0.041951638 -0.019996079 0.04220367 -0.016245184
0.040174853 0.02098725 -0.005510861 0.041318234 0.010360174 0.051195342 -0.036741886 -0.02531913
-0.027818639 -0.014875687 -0.021807043 -0.022126785 -0.0216526 0.03074348 0.015928922 -0.03555795
-0.015432028 0.009326943 0.029136807 0.003257257 -0.022301827 -0.012135847 -0.012229751 0.018151643
0.01778927 0.014868057 0.005707054 -0.0048037516 -0.055694476 -0.027855547 -0.03512484 -0.0041366057
0.012317266 0.028923126 -0.008826583 -0.0025643185 0.01174509 -0.019267634 0.029410893 -0.016978988
-0.084743604 0.0036764857 0.015852073 0.004005021 -0.058616452 -0.030270014 0.0018076054 0.020571593
-0.05746792 0.025233526 -0.02531023 0.005982354 0.02044637 0.053749975 0.019682894 -0.06430072
0.006605729 -0.024802402 -0.058789533 0.008508841 -0.06480972 -0.026703019 0.06872879 -0.047017105
-0.017275695 0.014051996 -0.033124387 -0.059884332 -0.008782659 -0.029124947 0.031661578 0.013444546
-0.03395923 -0.02815998 0.022927752 0.0453008 0.010771819 -0.0031437627 0.023928352 0.035995893
-0.017041374 0.0010359238 -0.015314586 -0.0029885606 0.011145766 0.030292649 0.05003681 0.008828158
-0.02012621 0.008293822 -0.06375002 0.060489412 -0.03140539 -0.04238358 0.056539394 0.0017425676
-0.08013212 -0.0019533942 -0.00734519 0.0005352266 0.03199607 0.0050819735 -0.01275713 -0.0321478
-0.0082819015 -0.020037303 -6.898467e-05 -0.020318914 0.020205116 -0.0027083152 0.0013575028 -0.0612878
0.048569124 -0.0030426865 0.0031849968 -0.09937226 0.0377333 -0.0679584 -0.037521772 -0.02028005
0.017645884 0.07273005 0.053042445 0.016464649 -0.023966208 -0.03067085 -0.006254352 -0.003019512
-0.00029848304 -0.024929767 -0.02980605 0.0354021 0.015158667 0.026276052 0.014593085 0.02699068
-0.0044872286 0.01672481 -0.04264576 0.014603493 0.05532784 -0.03277376 -0.043422796 -0.028414473
-0.014821236 -0.0199049 -0.017059164 0.0029299143 0.014150577 0.0013481457 -0.03663972 -0.06345705
-0.0042042974 -0.013822222 0.017213805 -0.008394806 -0.004213372 -0.024956666 -0.0066732657 0.021349182
-0.0039666323 -0.017957872 -0.018340958 -0.0071686422 0.046291653 0.021799188 -0.052903652 -0.008939779
0.0390909 0.0032797025 -0.00051801733 0.076174 0.012855673 0.015477372 0.012483067 0.017692158
-0.001392224 -0.037284307 -0.022073265 -0.021743359 0.0058548744 -0.00075156474 0.053871576 -0.010594006
0.0022253843 -0.0027984653 0.022748217 0.045746364 0.0135097215 -0.0146363815 -0.012531589 -0.0031927163
00000000: 662b 90bb 4bad e13c 9d5a e2bc ac8b e73c
00000010: 0669 7b3c 7e1b 4f3c 6c2d 1ebc 30a6 33bb
00000020: 2ca6 813c 8918 44bd 190e 0e3d 765c c13c
00000030: cdb2 123d e48d 9dbc b7d0 d5bb ffc2 96bc
00000040: 61d2 79ba 2523 173c afa7 823c a18d 653b
00000050: 1deb 1cbd f006 19bc fd3d 8fbd 7211 8a3c
00000060: 7382 19bd bffe 09bd 658e 9b3d 55b2 813c
00000070: efcd 99bb 2bf6 203c 7a8c 14bd b125 ed3c
00000080: ad75 013d 0a23 56bd 8123 5ebc 3fca 4f3c
00000090: d6db 863d 95c3 713c 8fd5 4b3d 766d 51bd
000000a0: c7aa 343d 2d7f b4bc b4fa e13c 2714 733c
000000b0: 522d 2cbd c2fd 943c 34b3 a9bc 0d76 58bd
000000c0: 8e3e 9dbc 1edc 4fbd badd 943c 940d 10bd
000000d0: c353 073d c95e bc3a 86db f2bc a205 d6bc
000000e0: 1a7c 7fbc 1086 8f3d ea13 babc 6607 273d
000000f0: 7bd5 2b3d d1ce a3bc c1dd 2c3d 9f14 85bc
00000100: 638e 243d 74ed ab3c 7494 b4bb 4f3d 293d
00000110: b8bd 293c 35b2 513d a97e 16bd 106a cfbc
00000120: eae3 e3bc 27b9 73bc afa4 b2bc 3b43 b5bc
00000130: cb60 b1bc c0d9 fb3c 5f7d 823c 37a5 11bd
00000140: 9ed6 7cbc 09d0 183c 50b0 ee3c b477 553b
00000150: 52b2 b6bc 6ed5 46bc 4b5f 48bc c1b2 943c
00000160: ceba 913c 2799 733c 3d02 bb3b ca68 9dbb
00000170: e41f 64bd 5131 e4bc 10df 0fbd 5d8c 87bb
00000180: 5cce 493c 31f0 ec3c 5f9d 10bc 200e 28bb
00000190: 7a6e 403c 28d7 9dbc 1def f03c 8517 8bbc
000001a0: 0e8e adbd 32f1 703b 35dc 813c 8d3c 833b
000001b0: ce17 70bd d2f8 f7bc 2ced ec3a c285 a83c
000001c0: 7b63 6bbd 8ab6 ce3c 6657 cfbc 9f07 c43b
000001d0: 257f a73c ef28 5c3d 053e a13c 19b0 83bd
000001e0: df74 d83b 682e cbbc 4bcd 70bd aa68 0b3c
000001f0: f5ba 84bd 4ac0 dabc aec1 8c3d 0295 40bd
00000200: c285 8dbc 583a 663c 70ad 07bd 4649 75bd
00000210: 24e5 0fbc 7197 eebc 92af 013d 8346 5c3c
00000220: d518 0bbd c2af e6bc fbd2 bb3c 558d 393d
00000230: 497c 303c 9607 4ebb 6405 c43c 6e70 133d
00000240: 5a9a 8bbc d6c7 873a 08ea 7abc badb 43bb
00000250: bb9c 363c 4a28 f83c 66f3 4c3d faa3 103c
00000260: b9df a4bc d0e2 073c 5f8f 82bd bfc3 773d
00000270: f0a2 00bd 689a 2dbd da95 673d de66 e43a
00000280: 4f1c a4bd 8404 00bb ebaf f0bb 734e 0c3a
00000290: 500e 033d af86 a63b 4803 51bc 69ad 03bd
000002a0: d0b0 07bc 4525 a4bc ddab 90b8 da73 a6bc
000002b0: 3385 a53c fd7d 31bb 3cee b13a eb08 7bbd
000002c0: 6bf0 463d cf67 47bb 61bb 503b af83 cbbd
000002d0: 3c8e 1a3d c62d 8bbd 6eb0 19bd 5922 a6bc
000002e0: 1a8e 903c 7ef3 943d 0943 593d dfe0 863c
000002f0: c854 c4bc 6f41 fbbc 4ff1 ccbb 01e3 45bb
00000300: b77d 9cb9 8339 ccbc d12b f4bc cb01 113d
00000310: 0f5c 783c e040 d73c d617 6f3c 8f1b dd3c
00000320: 9a09 93bb 7802 893c 52ad 2ebd 7d43 6f3c
00000330: 729f 623d c73d 06bd 1adc 31bd 78c5 e8bc
00000340: c5d4 72bc 9a0f a3bc a9bf 8bbc ce03 403b
00000350: d2d7 673c 43b4 b03a 8813 16bd c5f5 81bd
00000360: 34c4 89bb 9a76 62bc f703 8d3c 5e8a 09bc
00000370: 5310 8abb ec71 ccbc 69ab dabb 7be4 ae3c
00000380: 86fa 81bb 631c 93bc c73f 96bc eee6 eabb
00000390: 519c 3d3d 3694 b23c 80b1 58bd 2778 12bc
000003a0: c81d 203d 47f0 563b 8ecb 07ba 1d01 9c3d
000003b0: 9aa0 523c ce94 7d3c c785 4c3c 25ef 903c
000003c0: 497b b6ba 6eb7 18bd fed2 b4bc 211f b2bc
000003d0: 3fda bf3b a804 45ba 71a8 5c3d 7b92 2dbc
000003e0: c1d7 113b 7566 37bb 785a ba3c 8a60 3b3d
000003f0: e157 5d3c 6fcd 6fbc 4b51 4dbc e43c 51bb

mlp_extractor.policy_net.0.bias f4 [64]
0.065564804 0.058319386 -0.09061591 0.07937741 -0.03738919 0.07488342 -0.020968504 0.06739456
-0.08067624 0.056225464 -0.05804638 -0.0540559 -0.054196533 -0.051108655 -0.05900757 -0.02936015
0.04664942 -0.053316116 0.044661354 -0.08034711 0.076515645 0.03430627 0.07225581 -0.064096406
0.005179863 0.0882473 -0.070059724 -0.07384873 -0.010622574 0.070760876 -0.008611987 0.0689757
0.081050806 0.008456434 0.09185733 -0.023798183 -0.067143835 -0.058647387 -0.061819613 -0.06684254
-0.0058305208 -0.051496573 -0.046225403 -0.027677882 -0.03504702 -0.061063197 0.081544675 -0.02763015
0.05681313 0.03414475 0.05178139 -0.061546896 -0.005745421 0.078049384 -0.046600427 -0.037905972
0.0032079206 0.072270244 0.028047752 0.020594405 -0.06578823 -0.0778366 0.05174908 0.05933801
00000000: d746 863d 4fe0 6e3d d694 b9bd a090 a23d
00000010: 6825 19bd 7a5c 993d 24c6 abbc 2906 8a3d
00000020: 9639 a5bd ac4c 663d 0ac2 6dbd b869 5dbd
00000030: 2ffd 5dbd 4f57 51bd ecb1 71bd b384 f0bc
00000040: 7613 3f3d 0062 5abd d3ee 363d 078d a4bd
00000050: 3cb4 9c3d bb84 0c3d dbfa 933d fa44 83bd
00000060: d7bb a93b 00bb b43d 797b 8fbd 013e 97bd
00000070: 4e0a 2ebc 14eb 903d 4b19 0dbc 2243 8d3d
00000080: f7fd a53d db8c 0a3c b21f bc3d 68f4 c2bc
00000090: b582 89bd 3e38 70bd 9036 7dbd bee4 88bd
000000a0: f40d bfbb 12ee 52bd d956 3dbd babc e2bc
000000b0: 778d 0fbd 671d 7abd e500 a73d a058 e2bc
000000c0: e2b4 683d 5edb 0b3d b918 543d 9918 7cbd
000000d0: 1644 bcbb 5bd8 9f3d 17e0 3ebd 4b43 1bbd
000000e0: fa3b 523b 6c02 943d 66c4 e53c 99b5 a83c
000000f0: fbbb 86bd cc68 9fbd d8f6 533d 6a0c 733d

mlp_extractor.policy_net.2.weight f4 [64, 64]
0.27059376 0.39257726 -0.087625735 0.033898536 0.08389586 0.06137806 -0.02985391 0.20217428
-0.23940726 0.17651503 0.24432594 -0.54993266 -0.11892318 0.18939722 -0.06675349 -0.1729035
0.24802297 0.13666563 -0.028444827 0.037211087 0.29539457 0.030589484 -0.20955177 -0.14172752
0.07568732 0.29289192 0.28216395 -0.20110835 0.011143985 0.010405891 -0.14277314 -0.10262699
0.12281521 -0.25834256 0.139519 -0.37444243 0.19354849 -0.20058325 0.023607185 -0.09831706
0.01017962 0.023316216 -0.29935914 -0.06973682 -0.099005446 -0.3925758 -0.1591144 -0.5211371
-0.016154712 -0.017957598 -0.10472705 -0.11620004 -0.17409733 -0.039643582 0.021439008 0.12638624
-0.29035568 0.18547533 0.29548123 0.07779848 0.026490238 0.007816418 -0.08540391 0.31152672
-0.12394816 -0.2816862 0.17955546 0.012659525 0.3151259 -0.1333876 0.0518459 0.19848995
0.09081967 -0.26194337 0.2502102 0.101793796 0.0041782293 -0.08335059 -0.21485046 -0.0829593
0.016347071 0.03858914 0.23082986 0.09386842 -0.31795463 0.189599 0.09187923 0.0140565075
-0.022621974 0.16155846 0.1271618 -0.38303483 0.20198299 0.16904053 -0.09635925 -0.44010228
-0.51478636 -0.24739218 -0.11883719 0.30946973 -0.35829943 -0.07228052 0.16831718 0.2674349
0.040840805 0.072796725 0.119348325 0.13780825 0.07137514 -0.09979793 0.15560561 -0.09701951
-0.24852416 0.0032147798 -0.28309172 0.0726592 0.013685804 -0.1563601 0.18654801 0.16242824
0.03128036 -0.032370023 0.17959538 0.072126135 -0.07653386 -0.037270043 -0.11025026 0.16826722
0.43458787 -0.14482023 0.077429734 -0.18629424 0.20071484 0.0695449 0.17147298 -0.09178525
-0.07222727 -0.07158215 -0.010504122 -0.10983795 0.014540398 -0.017896082 0.21742794 0.28219664
0.2810398 -0.0823524 0.32038334 -0.28689966 -0.07173559 0.08595974 0.521557 -0.13883309
-0.033483066 0.061313435 0.074509636 -0.44783115 -0.037183315 -0.016378803 -0.031830635 0.24903633
0.16369294 -0.116279796 -0.01318929 -0.4394536 0.30412623 -0.080366656 0.008308833 0.13670577
0.090076424 -0.115246594 0.08774852 0.056040224 0.22819468 0.11837892 0.12829277 -0.11834205
0.106714495 -0.12096343 0.10061008 -0.0076642535 0.05551737 -0.020531766 -0.20767891 -0.11604193
-0.028945724 -0.29610708 0.099570476 -0.14958824 0.2521582 -0.18632215 0.056697924 -0.002546025
0.18344262 -0.19589081 0.18357985 -0.26699066 -0.08894047 -0.08043826 -0.23009402 0.3745724
0.010421696 0.049607668 0.03842516 -0.07253934 0.10909611 -0.055356573 -0.147029 -0.24466424
-0.11084688 0.0188731 -0.059307788 -0.13994491 0.45922667 0.3414616 0.05542617 -0.00776546
0.048068184 0.14498338 0.16980235 -0.07689649 0.02007452 0.14743072 -0.32083935 -0.025474356
0.0905555 0.11436268 -0.0366135 -0.24609554 -0.06015479 -0.25346214 -0.23696157 -0.5301631
0.109575085 -0.1317021 -0.010901811 -0.056568004 0.040742803 0.13185821 0.3755717 -0.18055947
0.39415273 0.32190585 -0.031886477 -0.05122832 0.61245704 -0.014836914 0.19451652 0.15202497
-0.27348864 0.16826437 0.15304787 -0.010017218 -0.065320775 -0.13193074 0.01485685 0.08936793
00000000: 448b 8a3e e3ff c83e 1f75 b3bd 31d9 0a3d
00000010: 98d1 ab3d 9067 7b3d 3090 f4bc c606 4f3e
00000020: 2d27 75be 5bc0 343e 9430 7a3e 63c8 0cbf
00000030: ff8d f3bd 58f1 413e 0eb6 88bd 9d0d 31be
00000040: bcf9 7d3e 13f2 0b3e 2005 e9bc a76a 183d
00000050: f53d 973e cc96 fa3c bd94 56be 0521 11be
00000060: f401 9b3d eef5 953e cb77 903e 59ef 4dbe
00000070: 4395 363c 787d 2a3c 1f33 12be 192e d2bd
00000080: 8a86 fb3d 7a45 84be 12de 0e3e ebb6 bfbe
00000090: 9331 463e b265 4dbe db63 c13c 745a c9bd
000000a0: 6cc8 263c a601 bf3c 9a45 99be 2ed2 8ebd
000000b0: 5ec3 cabd b2ff c8be e3ee 22be 3e69 05bf
000000c0: e356 84bc d01b 93bc 237b d6bd 49fa edbd
000000d0: 9246 32be 4f61 22bd dca0 af3c 656b 013e
000000e0: 80a9 94be 3fed 3d3e 5149 973e cf54 9f3d
000000f0: 0e02 d93c 6f10 003c 3fe8 aebd 6e80 9f3e
00000100: 88d8 fdbd 2c39 90be 63dd 373e e569 4f3c
00000110: 2f58 a13e c296 08be 5e5c 543d f340 4b3e
00000120: aaff b93d 711d 86be 8d1b 803e 4479 d03d
00000130: 87e9 883b b7b3 aabd c201 5cbe 91e6 a9bd
00000140: 4bea 853c a50f 1e3d aa5e 6c3e 163e c03d
00000150: f3ca a2be 3e26 423e 2e2b bc3d 444d 663c
00000160: b851 b9bc 956f 253e b436 023e 241d c4be
00000170: a1d4 4e3e f618 2d3e 0058 c5bd 1655 e1be
00000180: 0ac9 03bf 6054 7dbe ea60 f3bd d172 9e3e
00000190: 0673 b7be cf07 94bd 575b 2c3e 3aed 883e
000001a0: b048 273d 7316 953d e56c f43d 9b1d 0d3e
000001b0: 212d 923d db62 ccbd 1457 1f3e 2ab2 c6bd
000001c0: 1e7d 7ebe 0eaf 523b 66f1 90be 59ce 943d
000001d0: 6c3a 603c dd1c 20be 7106 3f3e 9753 263e
000001e0: d61f 003d 6e96 04bd dae7 373e deb6 933d
000001f0: c9bd 9cbd 79a8 18bd e3ca e1bd 3e4e 2c3e
00000200: 4d82 de3e c14b 14be 7b93 9e3d ebc3 3ebe
00000210: 3188 4d3e 8e6d 8e3d 9d96 2f3e e8f9 bbbd
00000220: e4eb 93bd aa99 92bd 7b19 2cbc b8f2 e0bd
00000230: d93a 6e3c ce9a 92bc 6ea5 5e3e 147c 903e
00000240: 73e4 8f3e 60a8 a8bd 4909 a43e 83e4 92be
00000250: 1cea 92bd a90b b03d c284 053f 432a 0ebe
00000260: 8a25 09bd cc23 7b3d 8298 983d 204a e5be
00000270: 884d 18bd d72c 86bc d760 02bd 6103 7f3e
00000280: 1f9f 273e 1a24 eebd e417 58bc 1000 e1be
00000290: 6fb6 9b3e 4697 a4bd c621 083c 99fc 0b3e
000002a0: fd79 b83d 6806 ecbd 7fb5 b33d 6f8a 653d
000002b0: deab 693e a670 f23d 2e5f 033e 515d f2bd
000002c0: 218d da3d adbb f7bd a80c ce3d 6b24 fbbb
000002d0: 2f66 633d 3c32 a8bc c8a9 54be 64a7 edbd
000002e0: 951f edbc 599b 97be 9beb cb3d a92d 19be
000002f0: e11a 813e 3ccb 3ebe 153c 683d 36db 26bb
00000300: 62d8 3b3e 9a97 48be 5bfc 3b3e 00b3 88be
00000310: 6c26 b6bd d1bc a4bd c49d 6bbe f4c7 bf3e
00000320: c3bf 2a3c 6931 4b3d b363 1d3d 818f 94bd
00000330: c86d df3d 93bd 62bd c58e 16be 4389 7abe
00000340: b003 e3bd c29b 9a3c b9ec 72bd b84d 0fbe
00000350: c21f eb3e 0ed4 ae3e 8d06 633d 6675 febb
00000360: 25e3 443d 8676 143e abe0 2d3e e87b 9dbd
00000370: 5273 a43c 14f8 163e 0e45 a4be 99af d0bc
00000380: 2975 b93d fb36 ea3d 0af8 15bd 7800 7cbe
00000390: de64 76bd cac5 81be 0ea6 72be c5b8 07bf
000003a0: e768 e03d eadc 06be 829d 32bc dab3 67bd
000003b0: ede1 263d d705 073e ef4a c03e 95e4 38be
000003c0: 63ce c93e d8d0 a43e 659b 02bd c9d4 51bd
000003d0: fcc9 1c3f 8716 73bc 572f 473e 6fac 1b3e
000003e0: b406 8cbe 7f4d 2c3e 95b8 1c3e 421f 24bc
000003f0: e6c6 85bd da18 07be 256a 733c 8906 b73d

mlp_extractor.policy_net.2.bias f4 [64]
0.020391546 0.02308001 -0.0075618 0.0295439 -0.017404957 -0.05481669 -0.0467037 -0.018817658
0.037087828 0.036491007 -0.003365003 0.003270531 0.046203714 0.028098889 0.043293662 -0.03073137
-0.028297933 0.020413524 0.05091332 -0.01541067 -0.032501116 -0.017704833 0.047750473 -0.037680566
0.0131770065 -0.05637615 -0.07133314 0.048116166 0.035197243 -0.023426581 -0.015975416 0.005321564
-0.0128453225 -0.010492289 -0.01230828 0.037243433 -0.008435668 0.03610885 -0.019180061 0.015389171
0.012016266 0.0021010789 0.033169348 0.022428447 0.035284646 0.09874166 0.06668312 0.03968208
-0.03513846 -0.02059999 0.027075699 -0.0101478165 -0.046856813 0.05454486 0.06436524 -0.017069105
0.0012578038 0.055955086 0.00011496837 0.051998287 0.049658738 0.010368523 -0.0135310665 0.030962735
00000000: 2c0c a73c 4a12 bd3c fac8 f7bb 0d06 f23c
00000010: d794 8ebc 7787 60bd 614c 3fbd 7d27 9abc
00000020: 68e9 173d 9877 153d 6287 5cbb 6856 563b
00000030: 1b40 3d3d a42f e63c b254 313d 5bc0 fbbc
00000040: 11d1 e7bc 433a a73c 7c8a 503d 097d 7cbc
00000050: e41f 05bd ba09 91bc 0096 433d f056 1abd
00000060: 5fe4 573c aeea 66bd 1c17 92bd 7515 453d
00000070: fc2a 103d 1ae9 bfbc e0de 82bc 8460 ae3b
00000080: 3075 52bc dae7 2bbc aba8 49bc 928c 183d
00000090: c235 0abc e0e6 133d 811f 9dbc dd22 7c3c
000000a0: dfdf 443c 41b2 093b 95dc 073d ddbb b73c
000000b0: a286 103d 1139 ca3d 2991 883d ad89 223d
000000c0: 59ed 0fbd 4fc1 a8bc dbcd dd3c 0743 26bc
000000d0: eeec 3fbd 6e6a 5f3d ecd1 833d 82d4 8bbc
000000e0: e4dc a43a 2931 653d 2c1b f138 28fc 543d
000000f0: f666 4b3d bde0 293c 68b1 5dbc 90a5 fd3c

action_net.weight f4 [5, 64]
0.25601548 -0.015131778 0.11371025 0.31632358 -0.13520457 -0.23728131 -0.31637657 -0.0064732763
0.07510525 0.19576408 0.062352728 -0.4390244 0.013206656 0.006670132 0.058950514 -0.004269932
0.005756993 -0.011801516 -0.0037438807 0.0110240495 0.048594918 -0.0063534523 0.018582202 -0.12625714
0.38029537 -0.16580139 -0.007293725 0.011318241 -0.02212261 0.006925073 0.3684089 -0.3435086
-0.3313098 0.0069671893 -0.3397565 0.26159665 -0.16280533 -0.012836453 -0.019782327 0.12532122
0.42813846 0.28629762 0.006652848 0.011122188 0.15492964 0.10658633 0.18386354 0.009400314
-0.008319768 -0.3837758 0.2312591 -0.4042596 -0.012518402 0.29979882 0.01479775 -0.0035092565
-0.37528682 0.022965612 -0.055283107 0.09422593 0.28401527 -0.29030547 -0.41527376 -0.012793251
-0.2584436 0.015316288 -0.1139341 -0.3195931 0.13523863 0.2396325 0.31835848 0.008656429
-0.07180296 -0.1970953 -0.0614725 0.44220877 -0.011457905 -0.00934979 -0.057323568 0.004888219
-0.0063790004 0.010327419 0.003212322 -0.010143238 -0.049300093 0.009214748 -0.018296875 0.12330266
-0.38135177 0.16622223 0.008616958 -0.011972656 0.02031852 -0.005293363 -0.37036908 0.34363514
0.33153042 -0.008084339 0.34087434 -0.2629406 0.16553664 0.012137797 0.020187756 -0.12318337
-0.4253423 -0.28723535 -0.0051486534 -0.011158936 -0.15314658 -0.1058217 -0.18202704 -0.007835084
0.007262668 0.38498792 -0.23030268 0.40909544 0.012458003 -0.29733023 -0.013970621 0.0043305135
0.37823942 -0.023974333 0.056565557 -0.09177783 -0.28546014 0.29132092 0.41717222 0.014142075
0.10159525 -0.24845691 0.23651382 0.089049466 -0.1090604 -0.13765176 -0.09545401 0.20548432
0.10256672 0.105070345 0.14797138 -0.092854805 -0.18015905 -0.23965342 -0.16698119 0.14585698
0.1809622 -0.25102195 -0.25956473 0.12094967 0.26618922 0.14428526 -0.17337444 -0.09968498
0.094457895 -0.056130547 0.1285648 -0.15445584 -0.24419892 0.21060361 0.09360166 -0.12557909
-0.103683755 0.18004912 -0.13183203 0.102094404 -0.11443531 -0.19646098 0.22389677 0.15053976
0.105631046 0.12757535 -0.20084107 -0.149566 0.059647292 0.08153645 0.02467082 -0.14019245
0.20502315 -0.1043087 0.08299057 -0.12801707 0.13767157 0.0765701 -0.11058187 0.23287132
-0.08286513 -0.12902804 -0.120750606 0.08235025 0.09626509 -0.098925665 -0.10377639 -0.2373968
-0.06927322 -0.1320122 0.04292766 -0.06927977 0.046222124 0.03048279 0.073252335 0.11123271
-0.075774305 -0.071966246 -0.0036322088 0.068305306 -0.12125758 -0.12512568 -0.12688673 0.13574225
0.11085746 -0.08575111 -0.13588062 0.13231191 0.042212047 0.14087938 -0.15898639 0.08378186
-0.081479885 0.07833033 0.16904183 -0.15221941 -0.09126553 0.11349069 -0.056961574 -0.0070051425
0.055871718 0.11421793 0.041063845 -0.05102203 0.05009954 -0.10200994 0.102176316 -0.029135965
-0.060156383 -0.06164377 -0.1327174 -0.12734695 -0.092747666 -0.059527695 -0.052275717 -0.13335182
0.12029745 0.06780148 -0.07599828 0.042240307 0.17780751 -0.07626484 -0.19327238 0.11850725
0.1086699 -0.18293504 0.033522807 -0.033016477 -0.0670295 0.08710385 0.07685455 -0.0961832
00000000: 7614 833e 47eb 77bc ebe0 e83d 2af5 a13e
00000010: 1173 0abe dff9 72be 1cfc a1be c71d d4bb
00000020: c8d0 993d 6176 483e 9365 7f3d cec7 e0be
00000030: bb60 583c 1f91 da3b 1876 713d c9ea 8bbb
00000040: 28a5 bc3b 255b 41bc e55b 75bb 379e 343c
00000050: 770b 473d 9f30 d0bb b439 983c 8d49 01be
00000060: 13b6 c23e d7c7 29be 3300 efbb 2570 393c
00000070: 7a3a b5bc b9eb e23b 17a0 bc3e 5ce0 afbe
00000080: 70a1 a9be 054d e43b 90f4 adbe ffef 853e
00000090: 71b6 26be fc4f 52bc 8c0e a2bc 3554 003e
000000a0: f734 db3e 9a95 923e 2200 da3b d639 363c
000000b0: e0a5 1e3e ef49 da3d b946 3c3e c603 1a3c
000000c0: a34f 08bc 437e c4be 2fcf 6c3e 1dfb cebe
000000d0: fc19 4dbc 3b7f 993e 4372 723c 8efb 65bb
000000e0: 9825 c0be 6122 bc3c 8a70 62bd 86f9 c03d
000000f0: 736a 913e eba2 94be c39e d4be c99a 51bc
00000100: b852 84be 2bf1 7a3c 4856 e9bd b5a1 a3be
00000110: ff7b 0a3e 3962 753e e2ff a23e b2d3 0d3c
00000120: 6e0d 93bd 5ad3 49be 97ca 7bbd 3069 e23e
00000130: f0b9 3bbc dd2f 19bc 1ecc 6abd 5a2d a03b
00000140: ef06 d1bb 5634 293c d285 523b d32f 26bc
00000150: e5ee 49bd 74f9 163c 54e3 95bc 1b86 fc3d
00000160: 8a40 c3be 2936 2a3e 242e 0d3c f528 44bc
00000170: 0673 a63c f273 adbb 04a1 bdbe f2f0 af3e
00000180: 5bbe a93e 2d74 04bc 1587 ae3e 26a0 86be
00000190: 7082 293e 9cdd 463c cb60 a53c 9047 fcbd
000001a0: 77c6 d9be 8310 93be 09b6 a8bb f8d3 36bc
000001b0: 75d2 1cbe 0cb9 d8bd 4c65 3abe b95e 00bc
000001c0: adfb ed3b 231d c53e 77d4 6bbe f574 d13e
000001d0: a71c 4c3c ab3b 98be 08e5 64bc fbe6 8d3b
000001e0: 99a8 c13e d265 c4bc 49b1 673d 04f6 bbbd
000001f0: d527 92be 0428 953e 9997 d53e 29b4 673c
00000200: 2c11 d03d 7d6b 7ebe ae30 723e 915f b63d
00000210: 0f5b dfbd 95f4 0cbe 647d c3bd 7b6a 523e
00000220: 800e d23d 1f2f d73d cf85 173e a92a bebd
00000230: 9d7b 38be b567 75be 1efd 2abe 885b 153e
00000240: 284e 393e f385 80be abe5 84be 76b4 f73d
00000250: f449 883e 84bf 133e 1289 31be a427 ccbd
00000260: 2473 c13d 25e9 65bd 7ea6 033e ac29 1ebe
00000270: 480f 7abe 79a8 573e 3ab2 bf3d ce97 00be
00000280: 2658 d4bd cc5e 383e fafe 06be df16 d13d
00000290: 0f5d eabd 112d 49be 3245 653e 1827 1a3e
000002a0: 1755 d83d 1da3 023e 48a9 4dbe d427 19be
000002b0: b850 743d 95fc a63d 761a ca3c 9c8e 0fbe
000002c0: 97f1 513e cd9f d5bd f6f6 a93d e816 03be
000002d0: c7f9 0c3e c9d0 9c3d bf78 e2bd d275 6e3e
000002e0: 31b5 a9bd ed1f 04be 184c f7bd 3fa7 a83d
000002f0: a226 c53d 8a99 cabd b788 d4bd 2618 73be
00000300: 1edf 8dbd 352e 07be ead4 2f3d 8de2 8dbd
00000310: 6953 3d3d 0bb7 f93c 5205 963d facd e33d
00000320: 8f2f 9bbd 0a63 93bd 5a0a 6ebb a7e3 8b3d
00000330: e555 f8bd f220 00be 98ee 01be 0400 0b3e
00000340: 3c09 e33d 479e afbd 4a24 0bbe c67c 073e
00000350: 8ae6 2c3d af42 103e 54cd 22be d395 ab3d
00000360: edde a6bd a76b a03d 4d19 2d3e 68df 1bbe
00000370: 6ce9 babd cf6d e83d 8a50 69bd 658b e5bb
00000380: bed9 643d 17eb e93d 9032 283d 7afc 50bd
00000390: 2d35 4d3d 96ea d0bd d141 d13d 8cae eebc
000003a0: 8a66 76bd 2e7e 7cbd 12e7 07be 3d67 02be
000003b0: 7df2 bdbd 50d3 73bd 101f 56bd 618d 08be
000003c0: 825e f63d 81db 8a3d fca4 9bbd 2c04 2d3d
000003d0: 2c13 363e be30 9cbd 32e9 45be eeb3 f23d
000003e0: 538e de3d 5353 3bbe 364f 093d 493c 07bd
000003f0: c346 89bd 8163 b23d eb65 9d3d b3fb c4bd

action_net.bias f4 [5]
0.02073139 -0.020731326 -0.018588975 -0.18551984 0.14608185
00000000: e0d4 a93c bed4 a9bc e847 98bc eaf8 3dbe
00000010: 7b96 153e
