model_curriculum/2. 2 Moving Plats No Enemies/curriculum_game_2_moving_plats_no_enemies.onnx (onnx, 595934 bytes, 6 tensors)

mlp_extractor.policy_net.0.weight f4 [64, 2250]
000000 ae 42 90 bb e1 a7 e1 3c c8 5d e2 bc ac 8b e7 3c
       -0.00440248 0.027545871 -0.027632609 0.028264843
000010 06 69 7b 3c 7e 1b 4f 3c 6c 2d 1e bc 30 a6 33 bb
       0.015344864 0.012640832 -0.009654384 -0.0027412288
000020 2c a6 81 3c 89 18 44 bd ee ec 0d 3d 8d 28 c1 3c
       0.015826307 -0.04787496 0.034649782 0.023578906
000030 53 95 12 3d fc c4 9d bc 85 9f d6 bb 8b eb 96 bc
       0.035786938 -0.019258969 -0.006549778 -0.018422863
000040 4b 50 7e ba 53 5c 16 3c aa 25 82 3c 60 87 60 3b
       -0.00097012956 0.009177285 0.0158871 0.0034260377
000050 88 22 1d bd 35 0a 1a bc 36 54 8f bd 61 97 89 3c
       -0.03836301 -0.009401848 -0.06998484 0.016795816
000060 9c c7 19 bd 44 46 0a bd aa 68 9b 3d 46 43 81 3c
       -0.037543878 -0.033758417 0.075883225 0.015779149
000070 1b 57 9b bb 9d 30 20 3c 42 a5 14 bd e5 1c ed 3c
       -0.0047406084 0.009777215 -0.036290415 0.028944442
000080 ad 75 01 3d 0a 23 56 bd 81 23 5e bc 3f ca 4f 3c
       0.031606365 -0.05227951 -0.0135582695 0.012682497
000090 d6 db 86 3d 95 c3 71 3c 8f d5 4b 3d 76 6d 51 bd
       0.06584899 0.014756103 0.049764212 -0.05112978
0000a0 c7 aa 34 3d 2d 7f b4 bc b4 fa e1 3c 27 14 73 3c
       0.04410818 -0.022033298 0.027585365 0.014836348
0000b0 52 2d 2c bd c2 fd 94 3c 34 b3 a9 bc 0d 76 58 bd
       -0.04203541 0.018187407 -0.020715334 -0.052846957
0000c0 8e 3e 9d bc 1e dc 4f bd ba dd 94 3c 94 0d 10 bd
       -0.019194867 -0.05074703 0.018172134 -0.0351692
0000d0 c3 53 07 3d c9 5e bc 3a 86 db f2 bc a2 05 d6 bc
       0.033038866 0.001437151 -0.029645693 -0.026125733
0000e0 1a 7c 7f bc 10 86 8f 3d ea 13 ba bc 66 07 27 3d
       -0.015593553 0.07007992 -0.022714574 0.04077854
0000f0 7b d5 2b 3d d1 ce a3 bc c1 dd 2c 3d 9f 14 85 bc
       0.041951638 -0.019996079 0.04220367 -0.016245184
000100 59 e6 23 3d 7a e4 ab 3c 24 42 b9 bb a4 98 28 3d
       0.0400146 0.02098297 -0.0056536365 0.041161194
000110 71 a6 29 3c ec 13 51 3d 28 1d 17 bd db 62 cf bc
       0.010354624 0.05104439 -0.03689304 -0.025315693
000120 07 29 e5 bc bc 34 75 bc d5 b3 b2 bc 3b 43 b5 bc
       -0.027973665 -0.014966186 -0.021814266 -0.022126785
000130 cb 60 b1 bc 03 7b fb 3c f4 42 81 3c cd ae 11 bd
       -0.0216526 0.030698305 0.015778996 -0.035567094
000140 27 cc 7e bc 01 af 18 3c 50 b0 ee 3c b4 77 55 3b
       -0.015551603 0.009319068 0.029136807 0.003257257
000150 0f 11 b7 bc e1 4a 49 bc 4b 5f 48 bc e7 a7 93 3c
       -0.022347001 -0.012285919 -0.012229751 0.018024398
000160 cd de 91 3c 81 5f 72 3c 16 2d bc 3b 56 97 9d bb
       0.017806435 0.014793278 0.0057426794 -0.0048093004
000170 14 25 64 bd 51 31 e4 bc 10 df 0f bd 5d 8c 87 bb
       -0.055699423 -0.027855547 -0.03512484 -0.0041366057
000180 5c ce 49 3c 31 f0 ec 3c 5f 9d 10 bc 1a 0e 28 bb
       0.012317266 0.028923126 -0.008826583 -0.002564317
000190 f1 fa 3f 3c f3 0d 9e bc 40 b6 f0 3c e9 51 8b bc
       0.011717544 -0.01929376 0.029383779 -0.017006831
0001a0 b0 9e ad bd 78 ff 6e 3b 66 9a 81 3c 5d b9 81 3b
       -0.08477533 0.003646819 0.015820693 0.0039588646
0001b0 1d 4f 70 bd 6a 6e f8 bc 9e b1 e4 3a 95 dd a7 3c
       -0.0586692 -0.030326087 0.0017447954 0.0204914
0001c0 07 b4 6b bd da c2 cd 3c 6d 3c d0 bc 33 8c c0 3b
       -0.057544734 0.025117327 -0.025419438 0.005876088
0001d0 60 c0 a6 3c 42 cd 5b 3d 8d f9 a0 3c ce b8 83 bd
       0.020355403 0.053662546 0.019650245 -0.06431733
0001e0 6a 52 d8 3b 57 e2 ca bc 4b cd 70 bd aa 68 0b 3c
       0.0066016214 -0.02476613 -0.058789533 0.008508841
0001f0 f5 ba 84 bd 4a c0 da bc ae c1 8c 3d 02 95 40 bd
       -0.06480972 -0.026703019 0.06872879 -0.047017105
000200 c2 85 8d bc 58 3a 66 3c 70 ad 07 bd 46 49 75 bd
       -0.017275695 0.014051996 -0.033124387 -0.059884332
000210 24 e5 0f bc 71 97 ee bc 92 af 01 3d 83 46 5c 3c
       -0.008782659 -0.029124947 0.031661578 0.013444546
000220 d5 18 0b bd c2 af e6 bc fb d2 bb 3c 55 8d 39 3d
       -0.03395923 -0.02815998 0.022927752 0.0453008
000230 49 7c 30 3c 96 07 4e bb 64 05 c4 3c 6e 70 13 3d
       0.010771819 -0.0031437627 0.023928352 0.035995893
000240 5a 9a 8b bc d6 c7 87 3a 08 ea 7a bc ba db 43 bb
       -0.017041374 0.0010359238 -0.015314586 -0.0029885606
000250 bb 9c 36 3c 4a 28 f8 3c 66 f3 4c 3d fa a3 10 3c
       0.011145766 0.030292649 0.05003681 0.008828158
000260 b9 df a4 bc d0 e2 07 3c c1 d9 82 bd 14 b4 77 3d
       -0.02012621 0.008293822 -0.063891895 0.06047447
000270 9d 4b 01 bd 34 34 2e bd 42 88 67 3d f5 43 d0 3a
       -0.03156625 -0.042530254 0.05652643 0.0015889393
000280 70 6c a4 bd 64 31 00 bb 54 a1 f5 bb 09 b1 ef 39
       -0.08028495 -0.001956069 -0.0074960385 0.00045717534
000290 30 04 03 3d af 86 a6 3b 48 03 51 bc b4 dd 03 bd
       0.031986415 0.0050819735 -0.01275713 -0.032193854
0002a0 bb 37 0a bc f3 43 a4 bc 48 1f 37 b9 0c 89 a6 bc
       -0.008436139 -0.020051932 -0.00017463893 -0.02032902
0002b0 33 85 a5 3c fd 7d 31 bb ae e4 ab 3a cf aa 7b bd
       0.020205116 -0.0027083152 0.0013114417 -0.061442193
0002c0 6b f0 46 3d 3a 32 50 bb 33 2c 53 3b 33 b0 cb bd
       0.048569124 -0.0031768219 0.003222239 -0.09945717
0002d0 ec 73 1a 3d 46 36 8b bd da b9 19 bd 59 22 a6 bc
       0.037708208 -0.06797461 -0.037530757 -0.02028005
0002e0 1a 8e 90 3c 7e f3 94 3d 09 43 59 3d df e0 86 3c
       0.017645884 0.07273005 0.053042445 0.016464649
0002f0 c8 54 c4 bc 7d 41 fb bc 5f e7 ce bb 5d 6f 4a bb
       -0.023966208 -0.030670876 -0.0063142027 -0.0030889132
000300 07 7e c2 b9 aa d9 cc bc 04 ce f4 bc fb a3 10 3d
       -0.0003709646 -0.025006134 -0.029883392 0.035312634
000310 cd f2 76 3c 87 99 d6 3c 1d 3d 6e 3c 63 ae dc 3c
       0.015072537 0.026196254 0.014540938 0.026938623
000320 15 c3 95 bb 00 69 88 3c 2e f4 2e bd 3c 00 6e 3c
       -0.0045703747 0.01665163 -0.042713337 0.014526423
000330 09 50 62 3d d6 8b 06 bd cd 2c 32 bd a6 7f e9 bc
       0.05525211 -0.0328482 -0.043499757 -0.02850325
000340 72 d1 74 bc c3 e3 a3 bc 92 72 8c bc 23 c9 3e 3b
       -0.014942514 -0.020006066 -0.017144475 0.0029111586
000350 d2 d7 67 3c 43 b4 b0 3a 88 13 16 bd c5 f5 81 bd
       0.014150577 0.0013481457 -0.03663972 -0.06345705
000360 34 c4 89 bb 9a 76 62 bc f7 03 8d 3c 5e 8a 09 bc
       -0.0042042974 -0.013822222 0.017213805 -0.008394806
000370 53 10 8a bb ec 71 cc bc 69 ab da bb 7b e4 ae 3c
       -0.004213372 -0.024956666 -0.0066732657 0.021349182
000380 86 fa 81 bb 63 1c 93 bc c7 3f 96 bc ee e6 ea bb
       -0.0039666323 -0.017957872 -0.018340958 -0.0071686422
000390 51 9c 3d 3d 36 94 b2 3c 80 b1 58 bd 27 78 12 bc
       0.046291653 0.021799188 -0.052903652 -0.008939779
0003a0 c8 1d 20 3d 47 f0 56 3b 8e cb 07 ba 1d 01 9c 3d
       0.0390909 0.0032797025 -0.00051801733 0.076174
0003b0 9a a0 52 3c ce 94 7d 3c c7 85 4c 3c 25 ef 90 3c
       0.012855673 0.015477372 0.012483067 0.017692158
0003c0 49 7b b6 ba 6e b7 18 bd fe d2 b4 bc 21 1f b2 bc
       -0.001392224 -0.037284307 -0.022073265 -0.021743359
0003d0 02 77 ba 3b ae d6 4e ba 98 09 5c 3d cc 59 30 bc
       0.0056904564 -0.0007890266 0.053720087 -0.010763597
0003e0 3c 3e 0f 3b 0b 65 3f bb 2b 4c b9 3c 82 58 3b 3d
       0.0021857163 -0.0029204513 0.022619328 0.045738705
0003f0 84 2a 5b 3c 57 35 71 bc ba 8e 4d bc e4 3c 51 bb
       0.013376836 -0.01472219 -0.012546236 -0.0031927163

mlp_extractor.policy_net.0.bias f4 [64]
000000 d3 76 66 3d 72 b7 59 3d 5b 63 bc bd 7d 63 89 3d
       0.056265663 0.053153463 -0.09198638 0.06708429
000010 b7 90 e1 bc b5 a3 71 3d 44 45 cd bb 5b 19 73 3d
       -0.027534826 0.058994014 -0.0062643606 0.059350353
000020 c4 af a8 bd 52 df 90 3d 35 76 42 bd 38 43 46 bd
       -0.0823665 0.07073845 -0.047476012 -0.04840395
000030 3f 05 4a bd 49 48 24 bd cd 63 33 bd 87 32 0b bd
       -0.04932141 -0.040108 -0.04379635 -0.033983734
000040 52 7e 41 3d b6 b5 28 bd 4b ca 26 3d 5f 74 99 bd
       0.04723961 -0.041188918 0.040720265 -0.07492899
000050 dd cf 63 3d 85 cb c1 3c fe 69 83 3d 5d 05 5b bd
       0.055618156 0.023656616 0.06416701 -0.05347191
000060 00 6d ec 3b c1 e8 c6 3d 4a 59 7d bd 3a 84 83 bd
       0.0072151423 0.09712363 -0.06185273 -0.064217046
000070 49 88 07 bb 6e 45 82 3d 07 82 2f bc 28 64 50 3d
       -0.0020680598 0.06360899 -0.010712153 0.050876766
000080 37 8d 8a 3d 3d a2 40 3c f3 ce bb 3d df 6a af bc
       0.06765216 0.011757431 0.09170332 -0.021413265
000090 53 6e 82 bd 4a b8 5e bd 5b bc 6c bd a3 ed 7d bd
       -0.06368699 -0.05437497 -0.057796817 -0.061994206
0000a0 65 f3 9d b9 ec 65 5a bd 91 3a 1a bd c2 6b 94 bc
       -0.00030126717 -0.053319857 -0.03765351 -0.01811779
0000b0 d0 10 f7 bc 0e 00 5f bd 24 9c ae 3d ae 75 a4 bc
       -0.030159384 -0.05444341 0.08525875 -0.020075645
0000c0 bc ad 4e 3d 86 68 ed 3c 95 d2 30 3d 66 8b 64 bd
       0.050458655 0.028980505 0.043169577 -0.055797003
0000d0 a6 e1 9e b9 55 ba 93 3d 4f e0 e9 bc 83 7e 06 bd
       -0.0003030423 0.072132744 -0.028549341 -0.032835495
0000e0 2a 22 60 bb bc 2e 9f 3d 0d d1 f2 3c 06 b6 1f 3c
       -0.003420005 0.07772586 0.029640699 0.009747988
0000f0 d5 73 88 bd 5a dc 82 bd 10 7e 51 3d 8e 5f 8a 3d
       -0.06662718 -0.06389685 0.051145613 0.06756507

mlp_extractor.policy_net.2.weight f4 [64, 64]
000000 4d e4 8b 3e a3 7b ca 3e 3a 1b ad bd be 16 17 3d
       0.27322617 0.39547452 -0.08452459 0.036886923
000010 be 28 a5 3d 1b bf 83 3d 9d d4 04 bd c3 cd 4b 3e
       0.080644116 0.06432935 -0.032429326 0.1990271
000020 d2 e6 71 be d2 2b 31 3e 83 20 77 3e 01 73 0d bf
       -0.23623207 0.17301872 0.24133496 -0.5525361
000030 31 4c f9 bd 75 d0 48 3e 16 fa 8d bd 7a b0 2a be
       -0.121727355 0.1961077 -0.06932466 -0.16668883
000040 86 5c 80 3e ec 87 09 3e b4 7f d2 bc da ea 0e 3d
       0.2507059 0.13430756 -0.02569566 0.03489194
000050 f9 4f 93 3e 5b a4 f1 3c 9b a0 5a be 32 0b 14 be
       0.28771952 0.029497316 -0.21350329 -0.14457396
000060 2a 08 97 3d c8 9d 94 3e 61 ee 8e 3e 97 69 47 be
       0.07374604 0.29026628 0.27916244 -0.19473873
000070 25 3e 0e 3c 9d 1e 12 3c 25 90 10 be fb 52 e8 bd
       0.008681809 0.008918432 -0.14117487 -0.11343952
000080 78 6b 00 3e 36 79 85 be 50 b0 0b 3e 9b 28 be be
       0.12540996 -0.2606904 0.13641477 -0.37140355
000090 49 3e 43 3e 90 2e 4b be 70 6b aa 3c 40 a2 ce bd
       0.19066729 -0.19841981 0.020803183 -0.100895405
0000a0 d3 1f 5c 3c 3b 4e e0 3c 75 9d 9a be f8 33 8e bd
       0.013435322 0.027381053 -0.30198255 -0.06943506
0000b0 4d 70 d0 bd 96 06 ca be e4 04 26 be 0b f1 04 bf
       -0.1017767 -0.3945815 -0.16212803 -0.519303
0000c0 e9 27 59 bc c9 92 8e bc d3 81 d0 bd c7 64 f3 bd
       -0.013254144 -0.017403977 -0.10181012 -0.11884456
0000d0 23 33 34 be ec 03 3e bd b7 10 97 3c 7c 18 03 3e
       -0.17597632 -0.04639046 0.018440587 0.12802309
0000e0 60 1c 96 be 45 bb 3a 3e b9 9d 96 3e c8 28 a5 3d
       -0.29318523 0.182355 0.29417208 0.08064419
0000f0 2c ee f0 3c 03 66 a1 3b 40 cb a8 bd ce 1e 9e 3e
       0.029410444 0.004925491 -0.08241892 0.30882877
000100 19 cd f6 bd 1e ae 8e be c1 55 35 3e 5f c5 82 3c
       -0.12050838 -0.27867216 0.17708494 0.015963254
000110 b7 5a a1 3e 3c 50 05 be f2 c6 4a 3d e8 50 4b 3e
       0.31514522 -0.13018888 0.049506135 0.19855082
000120 c6 da b6 3d e4 0e 85 be f4 4a 7d 3e 24 95 c9 3d
       0.089284465 -0.25987923 0.24735624 0.098428994
000130 de 9d 51 3b 9d 01 af bd cd 51 5e be 25 19 ac bd
       0.0031984965 -0.085452296 -0.21710892 -0.084032334
000140 42 bb 8a 3c fe a3 11 3d 99 6c 6e 3e 60 75 bd 3d
       0.016934995 0.035556786 0.23283614 0.09250903
000150 e8 7f a2 be 15 97 43 3e 92 26 c3 3d e8 eb 49 3c
       -0.3173821 0.19100602 0.09528841 0.012324311
000160 22 ce ac bc 1c bf 27 3e 94 07 fb 3d ae e6 c4 be
       -0.021094386 0.16381496 0.12257305 -0.38457245
000170 0e ad 4d 3e 97 27 2e 3e 7a 55 c0 bd c0 c9 de be
       0.20085546 0.1700729 -0.09391303 -0.43513298
000180 bf e1 02 bf 71 9e 7e be e2 f2 ee bd 24 7c 9e 3e
       -0.5112571 -0.24865128 -0.1166742 0.30954087
000190 6e 7a b7 be b1 67 91 bd f7 bd 2b 3e 45 c5 88 3e
       -0.35835594 -0.07099856 0.16771685 0.26713005
0001a0 4a 16 1e 3d 89 21 94 3d a8 1c f3 3d cf 3b 0c 3e
       0.038595475 0.07232959 0.118707 0.1369469
0001b0 57 ab 8e 3d ae a6 cc bd 50 53 21 3e 02 0e cf bd
       0.06966274 -0.09992729 0.15754437 -0.10110094
0001c0 19 92 7b be 4d 62 23 3b 1c e4 8f be 0e b0 91 3d
       -0.2456745 0.0024930418 -0.2810372 0.07113658
0001d0 b4 45 63 3c b2 d7 1d be ea 57 3c 3e f3 58 26 3e
       0.013871599 -0.15414312 0.18392912 0.16244869
0001e0 13 4e 06 3d 0c 7a fc bc 18 a1 37 3e e9 d8 93 3d
       0.0327893 -0.030819915 0.17932546 0.07219107
0001f0 ca ed a0 bd e0 a6 23 bd fc f1 e4 bd ab f3 2d 3e
       -0.07857855 -0.039954066 -0.11178967 0.16987483
000200 00 ae dd 3e 94 e6 14 be c2 a3 a1 3d b4 e3 3f be
       0.43296814 -0.14541084 0.078925624 -0.18739206
000210 32 42 4d 3e 7d 7b 8c 3d 05 83 30 3e 22 13 bf bd
       0.20044783 0.06859491 0.1723748 -0.09329821
000220 3f e5 92 bd 25 2c 90 bd 18 91 1c bc e4 ac e0 bd
       -0.071726315 -0.0703967 -0.009556077 -0.10970476
000230 3c fe 44 3c ab 3d 6e bc bf ac 5f 3e 03 1b 91 3e
       0.012023505 -0.01454107 0.21843241 0.2834092
000240 09 d9 91 3e 2f a9 a5 bd c1 9b a4 3e b1 3a 94 be
       0.28485897 -0.0808891 0.3215008 -0.28951028
000250 da e3 99 bd 00 4b b1 3d 22 51 04 3f a6 17 0f be
       -0.07514162 0.08656883 0.516863 -0.13973865
000260 a2 b5 08 bd 9f 55 74 3d 61 8e 9c 3d 40 6c e4 be
       -0.033376344 0.059651967 0.07644344 -0.44613838
000270 d2 f2 15 bd 07 21 72 bc 39 ed 02 bd 48 65 76 3e
       -0.036608525 -0.014778382 -0.031964514 0.24062073
000280 6d 3f 26 3e 1a ec ec bd b8 70 6a bc de 37 e1 be
       0.16235133 -0.1156847 -0.014309101 -0.43987936
000290 a5 af 99 3e 3d 3e a3 bd 66 c5 93 3b fd ce 07 3e
       0.3001682 -0.079708554 0.0045096157 0.13262554
0002a0 e7 2b c4 3d c1 12 ef bd 7f 04 ad 3d 34 cb 6d 3d
       0.09578686 -0.11673499 0.08448123 0.058055118
0002b0 72 36 67 3e 5a 5e ea 3d fb 47 02 3e e3 3d e9 bd
       0.22579363 0.114437774 0.12722771 -0.11388757
0002c0 37 90 da 3d 52 43 f2 bd 83 a9 ce 3d 47 62 1d bc
       0.10672038 -0.118292466 0.100909255 -0.009605951
0002d0 4b 9b 67 3d 6e 95 c1 bc 8a 1e 53 be 43 2c e7 bd
       0.056544583 -0.023630824 -0.20617118 -0.11287739
0002e0 d1 70 09 bd 13 d0 97 be fd d2 c6 3d 6d c6 17 be
       -0.033554856 -0.29650936 0.097082116 -0.14821787
0002f0 49 9f 81 3e 5b e9 3d be 8c 4c 80 3d d4 5b 61 bb
       0.25316837 -0.1854605 0.062646 -0.003438701
000300 ec 50 38 3e 1c 8a 4b be eb 47 3b 3e a1 19 8a be
       0.17999619 -0.19876903 0.18289153 -0.26972678
000310 d1 96 b0 bd 9c 72 aa bd 52 72 69 be c6 49 b7 3e
       -0.08622516 -0.08322641 -0.22797516 0.35798472
000320 54 15 f9 3b 75 48 e4 3c bb 1b 29 3d 39 e6 8e bd
       0.0076014195 0.027866581 0.04128621 -0.06977505
000330 e7 7a e5 3d 14 8c 20 bd 10 6f 13 be 67 57 70 be
       0.112050824 -0.03919609 -0.14397836 -0.23470841
000340 01 f6 e9 bd 3f 66 b8 3c 64 1d 80 bd ff 49 0b be
       -0.11423875 0.022509692 -0.06255606 -0.13602446
000350 84 58 e1 3e 65 ce aa 3e ce 5b 4b 3d 8c 7e 98 bb
       0.44012845 0.33360592 0.0496481 -0.0046537574
000360 95 a9 55 3d af 5d 15 3e 94 0e 2b 3e e2 b6 87 bd
       0.05216368 0.14586519 0.1670478 -0.06626679
000370 33 6d c0 3c 8b cc 07 3e 01 01 9f be a3 8a 58 bd
       0.02348957 0.1326162 -0.31055453 -0.05286659
000380 bb bc b2 3d bb dc ee 3d fa 24 0b bd f1 a6 75 be
       0.08727404 0.11663195 -0.03397081 -0.23989464
000390 37 b1 69 bd 6a e1 73 be 01 dd 6f be a3 bf 06 bf
       -0.05705377 -0.23816457 -0.2342415 -0.52636164
0003a0 31 65 da 3d 74 cc f9 bd 0e 10 f8 bb 08 7b 6d bd
       0.10663832 -0.121971995 -0.0075702732 -0.05797866
0003b0 00 1a 33 3d 99 71 0b 3e bf 50 c1 3e bc ea 34 be
       0.043725967 0.13617553 0.37756917 -0.17667669
0003c0 60 30 c8 3e a4 a4 98 3e 5d 5a 0f bd da c4 44 bd
       0.39099407 0.2981311 -0.034998287 -0.048039295
0003d0 71 a5 1d 3f 5b 66 85 bc 18 38 4a 3e 2c cc 28 3e
       0.6158057 -0.016284158 0.1974796 0.16484135
0003e0 0a 5c 8a be 69 4b 2f 3e 9d ae 12 3e db d6 4f bc
       -0.27023345 0.1711861 0.14324422 -0.012685503
0003f0 1c 6d 8b bd 91 28 04 be 84 ad 3b 3c 33 b5 bb 3d
       -0.0680792 -0.129061 0.011454944 0.091654204

mlp_extractor.policy_net.2.bias f4 [64]
000000 03 9f 8b 3c 66 c5 db 3c 9e 0b 1c bc 28 dd 03 3d
       0.017043596 0.026827525 -0.009524254 0.032193333
000010 d4 af 14 bc 8f cc 4a bd dc fa 39 bd e7 17 b8 bc
       -0.009075124 -0.04951149 -0.045405254 -0.022472335
000020 ea f4 24 3d ad 62 23 3d ff 40 74 bb f0 03 c5 ba
       0.04027263 0.039889026 -0.0037270186 -0.0015031081
000030 b6 2d 52 3d 06 bf 02 3d 0c 71 42 3d ec 9b 13 bd
       0.051313125 0.031920455 0.04747109 -0.03603737
000040 1c c8 10 bd 30 b4 ba 3c f0 74 60 3d 42 97 9a bc
       -0.03534709 0.022790998 0.05479902 -0.018870953
000050 41 07 05 bd af c3 b6 bc cf 8c 60 3d 94 b2 1b bd
       -0.03247762 -0.022310106 0.054821786 -0.038012102
000060 dc 74 0e 3c 26 3e 7c bd f1 37 95 bd a1 fe 5b 3d
       0.008694854 -0.061582707 -0.072860606 0.05370963
000070 46 41 19 3d 1a e2 ea bc c0 25 08 bc 31 16 d0 ba
       0.037415765 -0.028672267 -0.008309782 -0.0015875754
000080 78 45 65 bc 9e d9 6a bc 5b ef 9d bc 47 e2 03 3d
       -0.013993613 -0.014334111 -0.019279173 0.032198217
000090 b7 ae 8a bc 96 7e 21 3d b5 02 c9 bc 3b bc 22 3c
       -0.016929014 0.039427362 -0.024537424 0.009932573
0000a0 d3 8f 8d 3c 0e c2 6b bc 09 74 0f 3d 58 03 da 3c
       0.017280495 -0.014389528 0.03502277 0.026612923
0000b0 52 3c 1a 3d ef 38 c6 3d 7c 3b 8d 3d 76 2c 34 3d
       0.037655182 0.09678828 0.06896111 0.043987714
0000c0 b0 76 20 bd 3a 99 cb bc 74 b3 a6 3c 4f b0 9a bc
       -0.03917569 -0.024853338 0.020349242 -0.018882899
0000d0 55 af 4f bd 67 d6 63 3d a8 d5 8a 3d af b1 a6 bc
       -0.05070432 0.055624392 0.06779033 -0.020348398
0000e0 92 ad f7 bb 09 88 7a 3d c3 f1 a9 3a 4c 13 5c 3d
       -0.007558533 0.06116489 0.0012965727 0.05372934
0000f0 c4 3f 76 3d 7b 20 a5 3b 06 f3 b2 bc 81 4d 02 3d
       0.060119405 0.0050392724 -0.021844398 0.031812195

action_net.weight f4 [5, 64]
000000 22 80 70 3e ef 02 0b bc e1 7f be 3d 21 b4 71 3e
       0.23486379 -0.008484586 0.09301735 0.2360387
000010 6c bd d3 bd ff 0d 3f be 3b 44 75 be 61 3c 77 bc
       -0.10338864 -0.18657683 -0.23951809 -0.015090079
000020 02 d3 80 3d 31 77 14 3e 8b 03 5f 3d 01 98 b2 be
       0.062902465 0.14498593 0.05444674 -0.34881595
000030 df 14 6a 3c 81 d4 68 3c 28 88 7f 3d 51 e3 3b bc
       0.014287203 0.014210821 0.062385708 -0.011467771
000040 c1 5c 2e bb ee dc 83 bb 0e 2d 80 3b ad c2 49 3b
       -0.0026605579 -0.0040241396 0.003911621 0.0030786202
000050 70 60 1c 3d 1e 00 75 bc d7 0e ad 3c 56 1d 08 be
       0.038177907 -0.014953641 0.02112524 -0.13292441
000060 55 22 9f 3e 22 31 fb bd 20 e4 75 bc 11 bf 9e 3c
       0.3108088 -0.12265231 -0.0150080025 0.019378217
000070 01 2f 66 bc 86 2a 6d b9 5d 07 95 3e 9e 39 95 be
       -0.014049293 -0.00022617923 0.2910718 -0.2914552
000080 98 8a 6d be 3e 83 9e ba cb 1d 90 be c3 36 57 3e
       -0.231974 -0.0012093557 -0.2814773 0.21016984
000090 ee 39 15 be 21 e4 b4 bb f3 d5 e3 bc 50 f2 cb 3d
       -0.1457288 -0.005520359 -0.02781198 0.09958327
0000a0 d3 ff b4 3e 4b dc 5f 3e 75 dd 54 3c 04 18 97 3c
       0.35351428 0.21861379 0.012992253 0.018444069
0000b0 29 5e 23 3e 22 74 93 3d b3 d3 09 3e 82 d7 8d 3c
       0.15953888 0.07199885 0.13459663 0.017314676
0000c0 df 5b 84 bc 20 f3 9c be 91 0b 48 3e f9 a6 a4 be
       -0.016157089 -0.3065424 0.19535662 -0.3215864
0000d0 68 0b a7 bc 7b db 76 3e ce 05 b8 3c c7 b2 34 bc
       -0.020391181 0.24107163 0.022463705 -0.011028952
0000e0 ff 0b a5 be 4b 69 f9 3c d6 33 2a bd fa 74 bf 3d
       -0.32235715 0.030445715 -0.04155334 0.093484834
0000f0 b7 67 58 3e c1 e6 7a be 22 60 b4 be 12 6a d6 bb
       0.21133314 -0.24502088 -0.35229594 -0.0065434063
000100 77 fc 72 be c7 07 0e 3c 33 f5 be bd 63 0d 75 be
       -0.2372912 0.008668846 -0.09324112 -0.23930888
000110 db ce d3 3d 4c 76 41 3e 59 4b 77 3e 5a 81 8d 3c
       0.10342189 0.18892783 0.24149837 0.017273594
000120 4c 20 74 bd 08 d4 15 be 04 69 5b bd 50 39 b4 3e
       -0.059601113 -0.14631665 -0.053566948 0.35199976
000130 ea 6e 4d bc 23 5f 8a bc 75 dc 78 bd 27 05 46 3c
       -0.012538651 -0.016891068 -0.06075712 0.012086189
000140 bf 9b 05 3b 81 17 27 3b 40 9a 91 bb 51 05 10 bb
       0.0020387021 0.0025496187 -0.004443437 -0.0021975825
000150 a2 43 1f bd 1a f1 91 3c 0d b9 aa bc a7 15 05 3e
       -0.03888286 0.017815161 -0.020840192 0.12996541
000160 c0 ac 9f be bb 0d fc 3d 92 c8 85 3c d2 1b a4 bc
       -0.31186485 0.123073064 0.016330991 -0.020032797
000170 c0 9e 48 3c dc 8a f3 3a 3d 08 96 be 29 4a 95 3e
       0.01224488 0.0018580812 -0.2930316 0.29158142
000180 68 c4 6d 3e fb ff c1 38 4c b0 90 3e e0 96 58 be
       0.23219454 9.250637e-05 0.28259504 -0.21151304
000190 e3 05 18 3e 4a fd 9d 3b 83 28 e7 3c 78 90 c7 bd
       0.14845996 0.004821454 0.02821756 -0.09744352
0001a0 3c 91 b3 be cc d2 60 be 2b 39 3c bc 4c 65 97 bc
       -0.35071743 -0.21955413 -0.011488239 -0.01848092
0001b0 b8 8a 21 be 22 e3 91 bd 36 f2 07 be 99 05 81 bc
       -0.15775573 -0.071234 -0.1327599 -0.01574974
0001c0 db 66 77 3c ff 91 9d 3e b5 10 47 be c7 20 a7 3e
       0.015100206 0.3077545 -0.19439967 0.32642195
0001d0 93 8c a6 3c 96 54 74 be 7e 3f b1 bc 12 28 42 3c
       0.020330703 -0.23860392 -0.02163672 0.011850374
0001e0 f6 8e a6 3e 43 d6 00 bd 1e 74 2f 3d 64 71 ba bd
       0.32530946 -0.031454336 0.042835347 -0.09103659
0001f0 89 e2 59 be 5c f1 7b 3e e9 58 b5 3e bd 4c 01 3c
       -0.21277823 0.2460379 0.35419396 0.007891831
000200 0e 13 db 3d 1a 80 66 be c7 da 5f 3e d6 29 c6 3d
       0.10696994 -0.22509804 0.218608 0.09675948
000210 cd 15 eb bd 8b c9 10 be 96 ce cf bd 79 90 3f 3e
       -0.114787675 -0.14139383 -0.10146825 0.18707456
000220 70 54 e2 3d e3 06 e3 3d d8 ef 1c 3e 17 e4 ca bd
       0.110512614 0.11085298 0.15325868 -0.09906786
000230 14 d6 25 be 0e 03 5f be d3 dd 19 be 84 ca 01 3e
       -0.16194946 -0.21778509 -0.15026025 0.1267491
000240 7c bd 25 3e 97 cb 69 be 92 e7 70 be cd 94 db 3d
       0.16185564 -0.2283157 -0.23525837 0.10721741
000250 f7 9a 79 3e 9b 04 06 3e 73 dc 19 be c7 5a da bd
       0.2437552 0.13087694 -0.15025501 -0.10661846
000260 ae b7 cd 3d ad 6a 87 bd be 35 f1 3d 9c de 0b be
       0.100448 -0.06612144 0.11777829 -0.13659137
000270 e3 3e 62 be e6 cb 40 3e 8f 92 ca 3d 4b c2 04 be
       -0.22094302 0.18827781 0.09891235 -0.12964742
000280 49 a5 e4 bd c2 78 21 3e c5 b2 0c be 5f 00 de 3d
       -0.11164338 0.15768722 -0.1374007 0.108399145
000290 88 e5 f6 bd 75 20 38 be 93 18 51 3e ee 9c 1f 3e
       -0.12055498 -0.17981131 0.2041953 0.15587208
0002a0 3b ce e4 3d a4 0a 09 3e 80 82 35 be 76 82 0a be
       0.11172148 0.13382965 -0.17725563 -0.1352633
0002b0 4c 98 8d 3d db cf c0 3d 21 cd 0e 3d 31 50 ff bd
       0.06913814 0.09414645 0.034863595 -0.12466467
0002c0 83 37 3c 3e 48 32 e2 bd a6 4d b7 3d ec 56 0a be
       0.18380551 -0.11044747 0.08950357 -0.1350972
0002d0 28 34 01 3e 7d fb aa 3d 09 af c9 bd 3b 89 57 3e
       0.12617552 0.08348749 -0.098478384 0.21048443
0002e0 92 64 b5 bd b5 66 eb bd 42 eb 01 be fd 3c bc 3d
       -0.08857073 -0.11494199 -0.126874 0.0919132
0002f0 c3 42 d2 3d e4 3b d7 bd 50 13 e1 bd e7 74 5e be
       0.1026664 -0.1050947 -0.10990012 -0.21724282
000300 7c 31 9c bd a7 ce 01 be 13 26 26 3d 8a 33 99 bd
       -0.07626626 -0.12676488 0.040563654 -0.074805334
000310 1e 52 65 3d c7 ba 07 3d 1b f2 a2 3d f1 32 dd 3d
       0.055986516 0.03313711 0.07956334 0.10800732
000320 f0 67 9e bd 85 84 a4 bd 2e ab 43 bc a4 1b 9a 3d
       -0.07734668 -0.080330886 -0.011942668 0.07524803
000330 a7 90 ee bd d0 05 f3 bd 98 43 01 be f6 9e 06 3e
       -0.11648684 -0.11866343 -0.12623441 0.13146576
000340 82 b8 df 3d 16 03 a4 bd 95 29 05 be 31 6c 09 3e
       0.10923864 -0.08008401 -0.13004144 0.13420178
000350 fc 79 1b 3d 49 a0 11 3e c5 8c 19 be 87 4e b6 3d
       0.03795813 0.142213 -0.14995106 0.08901697
000360 a1 f8 b1 bd e1 c8 aa 3d 17 e6 31 3e bf 01 1c be
       -0.0869 0.08339096 0.17372929 -0.15235041
000370 ba 8c af bd 18 15 df 3d 33 8a 84 bd a2 e8 2b bb
       -0.08571763 0.10892695 -0.06471672 -0.002623119
000380 d6 f7 75 3d 3e 32 e2 3d 91 25 44 3d a0 b5 68 bd
       0.060050808 0.11044739 0.04788739 -0.056813836
000390 f6 b4 5d 3d c2 ec ce bd a6 8a cc 3d 0a 5f 15 bd
       0.054127656 -0.10103752 0.099873826 -0.03646759
0003a0 6e e7 87 bd fd be 83 bd 3f cb fe bd db 63 03 be
       -0.066359386 -0.064329125 -0.1244111 -0.1283106
0003b0 9d 08 bf bd a0 e3 69 bd 74 23 3d bd 2e 20 0b be
       -0.09327815 -0.057101846 -0.04617639 -0.13586494
0003c0 76 ea ea 3d a2 d2 97 3d 13 ce a7 bd b7 4d 44 3d
       0.11470501 0.07413222 -0.081936024 0.047925677
0003d0 83 89 37 3e 84 1b a8 bd 1f 1d 46 be ec 54 e9 3d
       0.1792355 -0.08208373 -0.19347046 0.11393151
0003e0 fa 11 e9 3d 61 3f 3c be 20 17 2a 3d 9d d3 0a bd
       0.11380382 -0.18383552 0.04152596 -0.033893216
0003f0 d9 77 90 bd f0 73 be 3d ff 5b a8 3d d1 68 b6 bd
       -0.07054109 0.09299457 0.08220672 -0.08906711

action_net.bias f4 [5]
000000 7d 33 ea 3c e8 32 ea bc e3 db 47 bc 40 bb 40 be
       0.028589005 -0.028588727 -0.012198421 -0.1882143
000010 91 ee 11 3e
       0.14251162
