model_curriculum/1. 2 NonMoving Plats No Enemies/curriculum_game_2_plats_no_enemies.onnx (onnx, 595934 bytes, 6 tensors)

mlp_extractor.policy_net.0.weight f4 [64, 2250]
00000000: b03b 90bb 4da8 e13c 6a5d e2bc ac8b e73c
00000010: 0669 7b3c 7e1b 4f3c 6c2d 1ebc 30a6 33bb
00000020: 2ca6 813c 8918 44bd f6de 0d3d 4e0c c13c
00000030: ca86 123d aae2 9dbc 5a0b d7bb afd4 96bc
00000040: 5d55 7bba ac17 163c c7ee 813c c1d9 5e3b
00000050: 134c 1dbd 27d4 1abc e577 8fbd 70c0 893c
00000060: a8b1 19bd 6925 0abd c16e 9b3d 6ef1 803c
00000070: 4141 9dbb 18bb 1f3c 00cb 14bd 55f1 ec3c
00000080: ad75 013d 0a23 56bd 8123 5ebc 3fca 4f3c
00000090: d6db 863d 95c3 713c 8fd5 4b3d 766d 51bd
000000a0: c7aa 343d 2d7f b4bc b4fa e13c 2714 733c
000000b0: 522d 2cbd c2fd 943c 34b3 a9bc 0d76 58bd
000000c0: 8e3e 9dbc 1edc 4fbd badd 943c 940d 10bd
000000d0: c353 073d c95e bc3a 86db f2bc a205 d6bc
000000e0: 1a7c 7fbc 1086 8f3d ea13 babc 6607 273d
000000f0: 7bd5 2b3d d1ce a3bc c1dd 2c3d 9f14 85bc
00000100: 743b 243d c46f ac3c 10c6 b6bb c7e6 283d
00000110: 8a72 2a3c 1c59 513d 4ed6 16bd d249 cfbc
00000120: d794 e4bc 59f0 74bc e78d b2bc 3b43 b5bc
00000130: cb60 b1bc 5c9f fb3c 0f12 823c b5bc 11bd
00000140: 2146 7ebc 510a 193c 50b0 ee3c b477 553b
00000150: b6ec b6bc 3ea8 47bc 4b5f 48bc 9692 943c
00000160: 7c17 913c 8419 713c ab65 bc3b 3461 9dbb
00000170: df1e 64bd 5131 e4bc 10df 0fbd 5d8c 87bb
00000180: 5cce 493c 31f0 ec3c 5f9d 10bc cd0d 28bb
00000190: 53c5 3f3c 9c2f 9ebc 3093 f03c d475 8bbc
000001a0: dca8 adbd 2e4b 6b3b 0c22 813c d8e0 7c3b
000001b0: 00a1 70bd 25ef f8bc 60a9 da3a 982f a73c
000001c0: 9410 6cbd 780e cd3c 21e3 d0bc 4bd1 bd3b
000001d0: 2df6 a53c dd4c 5b3d a141 a03c 1cd2 83bd
000001e0: 02bf d83b 3663 cabc 4bcd 70bd aa68 0b3c
000001f0: f5ba 84bd 4ac0 dabc aec1 8c3d 0295 40bd
00000200: c285 8dbc 583a 663c 70ad 07bd 4649 75bd
00000210: 24e5 0fbc 7197 eebc 92af 013d 8346 5c3c
00000220: d518 0bbd c2af e6bc fbd2 bb3c 558d 393d
00000230: 497c 303c 9607 4ebb 6405 c43c 6e70 133d
00000240: 5a9a 8bbc d6c7 873a 08ea 7abc badb 43bb
00000250: bb9c 363c 4a28 f83c 66f3 4c3d faa3 103c
00000260: b9df a4bc d0e2 073c b3cb 82bd 2307 783d
00000270: 1148 01bd 4d18 2ebd 3dbd 673d 88cc d13a
00000280: 1f6f a4bd 3a6c fdba fc23 f5bb b0fb e739
00000290: 8f15 033d af86 a63b 4803 51bc 22e7 03bd
000002a0: 232b 09bc b960 a4bc 6322 40b9 bb5d a6bc
000002b0: 3385 a53c fd7d 31bb 9656 ac3a 336d 7bbd
000002c0: 6bf0 463d e99f 49bb 6a38 563b fce5 cbbd
000002d0: 7e6e 1a3d 1c39 8bbd d5be 19bd 5922 a6bc
000002e0: 1a8e 903c 7ef3 943d 0943 593d dfe0 863c
000002f0: c854 c4bc 8141 fbbc 5d2a cfbb b14c 4bbb
00000300: 557d c9b9 a2fa ccbc e8f0 f4bc 8113 113d
00000310: 5cdb 783c e6d6 d63c a309 6e3c a568 dc3c
00000320: 99ab 96bb d765 883c a3ff 2ebd 6706 6e3c
00000330: cd30 623d 10aa 06bd 074f 32bd 7fc6 e9bc
00000340: 3da1 75bc f24f a4bc 311d 8dbc cd0b 3e3b
00000350: d2d7 673c 43b4 b03a 8813 16bd c5f5 81bd
00000360: 34c4 89bb 9a76 62bc f703 8d3c 5e8a 09bc
00000370: 5310 8abb ec71 ccbc 69ab dabb 7be4 ae3c
00000380: 86fa 81bb 631c 93bc c73f 96bc eee6 eabb
00000390: 519c 3d3d 3694 b23c 80b1 58bd 2778 12bc
000003a0: c81d 203d 47f0 563b 8ecb 07ba 1d01 9c3d
000003b0: 9aa0 523c ce94 7d3c c785 4c3c 25ef 903c
000003c0: 497b b6ba 6eb7 18bd fed2 b4bc 211f b2bc
000003d0: a20e b93b c93f 27ba 5c6d 5b3d 78de 31bc
000003e0: 91fd 153b 4f3d 48bb 5c3a b83c ef86 3b3d
000003f0: 1cff 583c 8263 72bc 43f8 4cbc e43c 51bb
-0.0044016466 0.027546072 -0.027632434 0.028264843 0.015344864 0.012640832 -0.009654384 -0.0027412288
0.015826307 -0.04787496 0.03463646 0.023565438 0.035773076 -0.01927312 -0.0065626325 -0.018411962
-0.000958761 0.009160917 0.015860928 0.0034004303 -0.03840263 -0.009449995 -0.0700529 0.016815394
-0.03752294 -0.033727083 0.07589484 0.015740123 -0.0047990386 0.0097491965 -0.03632641 0.02892367
0.031606365 -0.05227951 -0.0135582695 0.012682497 0.06584899 0.014756103 0.049764212 -0.05112978
0.04410818 -0.022033298 0.027585365 0.014836348 -0.04203541 0.018187407 -0.020715334 -0.052846957
-0.019194867 -0.05074703 0.018172134 -0.0351692 0.033038866 0.001437151 -0.029645693 -0.026125733
-0.015593553 0.07007992 -0.022714574 0.04077854 0.041951638 -0.019996079 0.04220367 -0.016245184
0.04009576 0.021049388 -0.00557781 0.04123571 0.010403285 0.051110372 -0.03682547 -0.025303755
-0.027903004 -0.0149498815 -0.02179618 -0.022126785 -0.0216526 0.030715637 0.015877752 -0.035580356
-0.01551965 0.0093408385 0.029136807 0.003257257 -0.02232967 -0.012186108 -0.012229751 0.018136304
0.017711394 0.014715556 0.0057494245 -0.0048028473 -0.055693503 -0.027855547 -0.03512484 -0.0041366057
0.012317266 0.028923126 -0.008826583 -0.0025642992 0.011704761 -0.019309811 0.02936706 -0.017023958
-0.08479473 0.0035902965 0.015763305 0.0038586166 -0.05874729 -0.03038747 0.0016682558 0.020408437
-0.057632998 0.025031313 -0.025498929 0.005792772 0.020258987 0.0535401 0.019562544 -0.064365596
0.006614567 -0.02470551 -0.058789533 0.008508841 -0.06480972 -0.026703019 0.06872879 -0.047017105
-0.017275695 0.014051996 -0.033124387 -0.059884332 -0.008782659 -0.029124947 0.031661578 0.013444546
-0.03395923 -0.02815998 0.022927752 0.0453008 0.010771819 -0.0031437627 0.023928352 0.035995893
-0.017041374 0.0010359238 -0.015314586 -0.0029885606 0.011145766 0.030292649 0.05003681 0.008828158
-0.02012621 0.008293822 -0.06386509 0.06055368 -0.03156287 -0.042503644 0.056576956 0.001600639
-0.08029007 -0.0019334622 -0.0074810963 0.00044247275 0.03200298 0.0050819735 -0.01275713 -0.032202847
-0.008372101 -0.020065652 -0.00018323357 -0.020308366 0.020205116 -0.0027083152 0.0013148363 -0.061383437
0.048569124 -0.003076548 0.0032687434 -0.099559754 0.03770303 -0.06798002 -0.037535507 -0.02028005
0.017645884 0.07273005 0.053042445 0.016464649 -0.023966208 -0.030670883 -0.006322189 -0.0031021053
-0.00038431087 -0.025021855 -0.02990003 0.03541899 0.015189018 0.026225518 0.014528665 0.026905367
-0.0045980928 0.016650124 -0.042724263 0.014527894 0.05522232 -0.032877028 -0.043532398 -0.028537033
-0.0149920555 -0.020057652 -0.017225834 0.0028998733 0.014150577 0.0013481457 -0.03663972 -0.06345705
-0.0042042974 -0.013822222 0.017213805 -0.008394806 -0.004213372 -0.024956666 -0.0066732657 0.021349182
-0.0039666323 -0.017957872 -0.018340958 -0.0071686422 0.046291653 0.021799188 -0.052903652 -0.008939779
0.0390909 0.0032797025 -0.00051801733 0.076174 0.012855673 0.015477372 0.012483067 0.017692158
-0.001392224 -0.037284307 -0.022073265 -0.021743359 0.0056474963 -0.0006380049 0.05357109 -0.010856263
0.0022886733 -0.003055412 0.022488765 0.04578298 0.013244417 -0.014794232 -0.012510362 -0.0031927163

mlp_extractor.policy_net.0.bias f4 [64]
00000000: 809a e8bc 6380 2e3c 811e b5bd ae0a 1fbd
00000010: 4cb8 323d 4e44 33bd 6479 773d 12b6 7a3d
00000020: 4020 bdbd 800c 943d f389 fc3c 7e23 07bc
00000030: b56a a4bc 4cba 153c 0c04 403d 371a 26bd
00000040: d936 2d3d e6ee 243d e5da 673c 50bc 31bd
00000050: 5fda a93c 95ec cabc 76f2 dfbb 07a2 903b
00000060: edaf 753d e3a1 d23d 7afc 813c d21e 45bd
00000070: d7f4 3f3d b41a da3c 7e2c 74bd a092 d3bc
00000080: 48a2 27bd 1839 193d c40e 9d3d 1207 24bd
00000090: 815b 37bd 1c2e a5bd d164 0cbd 93dc 57bd
000000a0: e1a3 223d db86 31bd 3f33 59ba 0417 123d
000000b0: 18ac a3bb dab3 27bd fcbc d23d c3c0 3abd
000000c0: 0f51 55ba 392c 8d3d 17a6 18bc 8956 d5bc
000000d0: e2d7 443d e4ea 2b3d 6c80 8c3d c0b0 e5bc
000000e0: a910 5dbd 196f f23d 65a3 283d 2ee6 35bd
000000f0: 56b5 8cbd 39b4 fa3c d949 893d f70b b33d
-0.028393984 0.010650727 -0.08843709 -0.038828544 0.04363279 -0.043766312 0.0604185 0.061208792
-0.09234667 0.07228947 0.030827498 -0.008248208 -0.020070413 0.009138655 0.04687886 -0.040552344
0.042288635 0.040266894 0.01415131 -0.04339248 0.02073401 -0.024771014 -0.0068343235 0.0044138464
0.05998223 0.10284784 0.01586746 -0.048125096 0.046864357 0.026624061 -0.059612744 -0.025826752
-0.040926248 0.037407964 0.07668832 -0.040045805 -0.044765 -0.08065435 -0.034275834 -0.05270059
0.03970707 -0.0433415 -0.00082855293 0.03566648 -0.0049948804 -0.040943004 0.10289952 -0.04559399
-0.0008137384 0.068932004 -0.009316943 -0.02604224 0.048057444 0.041972056 0.06860432 -0.028038383
-0.053970966 0.118375964 0.04117145 -0.04440897 -0.068705246 0.030603515 0.067035384 0.087425165

mlp_extractor.policy_net.2.weight f4 [64, 64]
00000000: 7e26 863e 911c c43e b479 c4bd d228 d73c
00000010: e033 b53d 3086 5a3d c77e a7bc f1fd 453e
00000020: 9c9a 7cbe ec6d 1f3e 972f 813e 9cd8 09bf
00000030: f4ee dbbd ab71 643e 32bf 72bd 643a 26be
00000040: fc6c 723e ad97 153e 2bec 23bd 5513 5e3d
00000050: 7369 803e af74 653c f9de 5fbe 040f 08be
00000060: a8ef 4f3d e471 9c3e 2746 883e a17a 32be
00000070: 8886 953c ce05 19bc a876 2cbe 5040 14be
00000080: 3c59 e93d e510 7dbe 8dbb 183e b40d a3be
00000090: 2cf7 503e e55c 5cbe 3aab 293d 9014 b3bd
000000a0: 6b84 a93b b4b8 443d e0a5 93be 4315 e7bd
000000b0: d076 b3bd 7ad2 c1be 9098 21be a17f 01bf
000000c0: baf4 cfbc 90fc d4bc 4fb4 e5bd c8b1 d5bd
000000d0: 1961 45be 57af 8cbd b637 ef3c a93e e53d
000000e0: 6a4c 8abe bd47 453e 59f4 a23e 7bf1 8f3d
000000f0: 114f 343d f80a 843c 5478 c2bd c761 a73e
00000100: a9bf dabd 4cd1 85be 2a19 1e3e 0da4 ce3c
00000110: 14e4 a43e c9b5 efbd dec7 6d3d e996 633e
00000120: 7aa3 863d e877 73be 0f12 713e f0a6 9e3d
00000130: 2da3 69bc 0d0c c7bd feed 61be c583 d5bd
00000140: ef12 183d 733d ed3c 58f1 7e3e c54d 903d
00000150: da65 99be a9dd 453e b6dd e93d 6bdd be3a
00000160: e8ad 91bb 3b76 443e a43b dd3d 013b d0be
00000170: cab4 543e 5c02 3c3e 3467 d9bd 108a d9be
00000180: c5b2 ffbe 3ab6 78be e098 babd ce37 953e
00000190: 764e c1be 5a42 c0bd 813f 1c3e 7567 7c3e
000001a0: a5d0 5b3d 1947 5e3d 22b2 da3d 27a8 133e
000001b0: 2beb 593d 17ec f3bd 7c8d 393e 7c4e ffbd
000001c0: 372c 64be 0f4e bd3c f264 8abe 419e 603d
000001d0: 8cbf e43c c38a 02be 2631 393e 029e 113e
000001e0: b986 c93c 37e3 0bbc 69f4 433e eb1a 813d
000001f0: f767 ccbd 4e35 4bbd 5bb8 bcbd e77a 4a3e
00000200: 0915 d83e dbf2 11be 66fc a23d cf29 49be
00000210: e2ad 523e 34a2 6c3d 8d93 363e 05a7 c8bd
00000220: e3bb 91bd 2087 75bd 2e03 a339 f62b e1bd
00000230: d4ff da3b 3e34 1dbc 2bbb 693e 62a6 943e
00000240: c534 983e 33b1 8ebd 53f7 a53e 9cab 99be
00000250: 041a b9bd f23e af3d 2be2 f93e 9790 0fbe
00000260: 3737 07bd d8ef 5f3d 8e76 bb3d 0918 e2be
00000270: dc4a 04bd 2d9a 81bb 113d 12bd 3ebd 5f3e
00000280: c7ac 1d3e 7969 e1bd 7c97 88bc d959 dbbe
00000290: fc84 943e f9ff 9ebd e862 2abc 1881 f73d
000002a0: 5222 dd3d b1d8 ffbd 9fa9 993d f915 633d
000002b0: d06a 5f3e 6aa7 d43d 60a7 ff3d 4ff6 b3bd
000002c0: 9948 d03d ea41 e1bd dd44 cd3d 1834 a0bc
000002d0: 18f4 743d 024c 10bd 2793 45be 42e0 c2bd
000002e0: 7aa4 58bd ee96 97be f2a3 bb3d 57c0 19be
000002f0: 5fa4 833e f65d 36be 5fbc 9d3d da3f 07bc
00000300: 6713 413e e39f 41be 6068 423e bb4b 85be
00000310: 899f c4bd 0d20 98bd 26ac 72be 5907 b63e
00000320: 3c08 8a3c bdc2 023b 1fa7 043d bd39 a2bd
00000330: 9123 d53d ec0d ffba 021c 1dbe 3e31 79be
00000340: fa10 d7bd a034 703c 3f29 62bd 64e5 13be
00000350: 29a0 c23e a30b ac3e 13d3 6b3d 8a75 58bc
00000360: 1fbb 0c3d 0022 0d3e e4ab 243e 6ff7 5bbd
00000370: fef0 483c 4528 fc3d b69c 9fbe e261 e9bd
00000380: d54a c43d 9324 e03d 6906 28bd b423 65be
00000390: d2eb 88bd 339e 68be ee70 78be b741 09bf
000003a0: 4d19 f23d c578 d0bd 7570 85bc 4713 a8bd
000003b0: 7834 103d a5d9 023e 86a9 bb3e c386 35be
000003c0: ec8f cc3e fa12 983e 2a26 cfbc f545 6dbd
000003d0: 01af 193f b131 04bd 07fe 403e ff66 2a3e
000003e0: d5a2 8dbe 9ea6 253e 7ab6 173e 41e4 65bb
000003f0: c849 76bd a21a 0dbe 9162 bc3c 47f8 b03d
0.26201242 0.38303044 -0.095935255 0.026264582 0.08847785 0.053350627 -0.020446194 0.19335152
-0.24668354 0.15569276 0.2523162 -0.53846145 -0.10738936 0.22308986 -0.05926437 -0.16233212
0.23674387 0.14608641 -0.04002015 0.054217655 0.2508045 0.01400487 -0.21862401 -0.13286978
0.050765663 0.30555642 0.26616022 -0.17429592 0.018252626 -0.009339763 -0.16842139 -0.14477658
0.11393973 -0.24713476 0.14915295 -0.31846392 0.20406789 -0.21519811 0.04142306 -0.08744156
0.005173256 0.04802771 -0.2883749 -0.11283352 -0.08762896 -0.37855893 -0.15780854 -0.5058537
-0.02538525 -0.025999337 -0.11216032 -0.104343 -0.19275321 -0.06869381 0.02920137 0.11193592
-0.27011424 0.19265647 0.31827047 0.070284806 0.044020716 0.016118512 -0.09495607 0.32691786
-0.106810875 -0.26136243 0.15439287 0.02522471 0.3220526 -0.11704595 0.058051936 0.22225536
0.065741494 -0.2377621 0.23542045 0.077466846 -0.014260096 -0.097190954 -0.22063443 -0.10425524
0.03712743 0.028959965 0.24896753 0.07046083 -0.2996052 0.19322838 0.11419241 0.0014561837
-0.00444578 0.19185726 0.10802391 -0.40670016 0.2077209 0.18360275 -0.106153876 -0.42488146
-0.49941078 -0.24288264 -0.0911119 0.29144138 -0.37755173 -0.093876556 0.152586 0.2464884
0.053665776 0.054267023 0.106785074 0.14419614 0.05320279 -0.11910265 0.18120378 -0.124661416
-0.22282492 0.02310851 -0.2703014 0.054838423 0.027923368 -0.12748246 0.18085155 0.14220431
0.024600374 -0.008538059 0.19136204 0.06303962 -0.09980767 -0.049611382 -0.092148505 0.19773446
0.4220355 -0.14252798 0.079582974 -0.19644855 0.20574144 0.057771876 0.17829724 -0.097974814
-0.07115915 -0.05994332 0.00031092152 -0.10994713 0.006683329 -0.009594975 0.22825305 0.2903319
0.2972776 -0.06967392 0.32415256 -0.3001374 -0.09038165 0.08556928 0.48805365 -0.1402
-0.03301164 0.054672092 0.09153472 -0.44158962 -0.032297954 -0.0039551468 -0.03570277 0.21849534
0.1539794 -0.110064454 -0.016673796 -0.42841986 0.2900771 -0.07763667 -0.010399558 0.120851696
0.10797562 -0.124925025 0.07503056 0.055440877 0.2181809 0.10383494 0.12483096 -0.08787214
0.10170097 -0.109989 0.100229 -0.01955609 0.0598031 -0.035228737 -0.19294415 -0.0951543
-0.052891232 -0.29607338 0.091621295 -0.15014778 0.25711343 -0.17809281 0.077019446 -0.0082549695
0.18855058 -0.18908648 0.18985128 -0.2603434 -0.096007414 -0.07427988 -0.23698482 0.3555248
0.01684963 0.00199525 0.03238594 -0.07921169 0.104071744 -0.0019459105 -0.15342715 -0.2433519
-0.10501285 0.014660984 -0.055215117 -0.14442974 0.38012818 0.33602628 0.057574343 -0.013211617
0.03435814 0.13782501 0.16081196 -0.053702768 0.012264488 0.12312368 -0.31174248 -0.11395623
0.095845856 0.10944476 -0.04102174 -0.22376901 -0.06685604 -0.22716598 -0.2426183 -0.536159
0.11821232 -0.10179285 -0.016288975 -0.08206802 0.035206288 0.12778337 0.36652774 -0.17727189
0.39953554 0.29701978 -0.025286753 -0.057928044 0.6003266 -0.032273952 0.18846904 0.16640852
-0.27663293 0.1617684 0.14815703 -0.0035078677 -0.060128957 -0.13779691 0.022996219 0.08641105

mlp_extractor.policy_net.2.bias f4 [64]
00000000: 6808 d83c e5ca 823d ddb9 9fbc fa08 b33c
00000010: 712c 10bb f275 41bd 0f41 2dbd 936b 6cbd
00000020: 8cee 0d3d 5e03 193d 379b 0dbc 97b1 793b
00000030: 0d10 9f3d 5127 963d f8b3 8f3d 3720 76bd
00000040: fd7e 8bbd 80d9 583d 9575 cb3d b989 20bd
00000050: 7f04 39bd ac93 32bd 8933 a73d 7069 26bd
00000060: 87eb b9ba 6314 75bd 2277 afbd cd8e 9f3d
00000070: 31e3 9a3d 7b35 87bd e3eb e1ba b471 a33b
00000080: 9ee5 5dbc f507 46bd f7f7 31bc 501f f03c
00000090: ae91 7bbc bf1c 903d 2b6c 7bbd 9cbf a3bb
000000a0: 7a87 603c 56a6 c03a f689 8b3d 46c2 3c3d
000000b0: f4d9 153d a183 b33d c8c3 7c3d e32c 833d
000000c0: 5bab 9abd 4101 a9bc 8e0f 8b3c 3f16 54bc
000000d0: a5d2 89bd 615a 323d 8df0 a63d 5972 71bd
000000e0: 3c63 96ba 4a51 9f3d 9544 3d39 e1d2 323d
000000f0: 1b62 6a3d 33f6 cf3b f19d 69bb b22d 893d
0.026371196 0.06386355 -0.019497806 0.021854866 -0.0021999145 -0.047231622 -0.042298373 -0.05771978
0.034651324 0.037356727 -0.008642963 0.0038100237 0.07766733 0.07331718 0.07016748 -0.060089316
-0.068113305 0.0529418 0.09934536 -0.039193843 -0.045170303 -0.043597862 0.081641264 -0.040627897
-0.0014184573 -0.059833895 -0.08567645 0.07790909 0.075628646 -0.066019975 -0.0017236437 0.0049879197
-0.013543515 -0.048347432 -0.010862342 0.029311806 -0.015354557 0.07036733 -0.061382454 -0.004997207
0.013704175 0.001469801 0.06813423 0.04608371 0.03658481 0.087653406 0.06171015 0.06405046
-0.07552215 -0.02063048 0.01697519 -0.012944757 -0.067296304 0.043543223 0.0815135 -0.05894694
-0.0011473666 0.077791765 0.00018049993 0.04365814 0.057222467 0.006346488 -0.003564712 0.06698169

action_net.weight f4 [5, 64]
00000000: cf22 413e ec0d 7abc f12a 663d 5f67 063e
00000010: f5bb c4bd 34f3 f8bd 1305 edbd 0aac 1f3b
00000020: c7e5 8b3d 786c d93d 08d7 863d 1cbf 20be
00000030: 187e ad3b d230 113b 7863 bd3c 3eed 4339
00000040: 8492 073c 3e40 6fbc d9f6 bbbb 6127 743c
00000050: c82d ed3c 8e14 1a3a ecae 373c 7623 c2bd
00000060: 3d68 733e 7724 d9bc a518 80bb 4c25 fa3b
00000070: a172 cdbc 8d61 5b3c a195 0f3e 8505 bdbd
00000080: 31a1 0ebe 97ae 353c 0542 f3bd 41d7 0d3e
00000090: 56e0 c2bd c8f6 86bc 9f19 e3b8 9d46 8b3d
000000a0: fcfd 2a3e 85ac 2d3e bd25 ad3a 32b9 f03b
000000b0: d928 183e 872a bd3d 4691 143e 5439 d03b
000000c0: 0ec6 bcbb c118 1dbe 3eb7 0a3e 9e0a 12be
000000d0: c79c 14bc 62f5 083e d73c 353c ed48 0c39
000000e0: 71fa 47be d7da 9c3c c57d 26bd 45d3 c53d
000000f0: f0ff f13d 5e40 19be df32 63be 4e2f a1bc
00000100: 439f 43be 8b11 7d3c 9c15 67bd c5c0 09be
00000110: 82cd c43d e7c3 fd3d a613 f13d de6a 84b9
00000120: 5023 85bd 7e26 dcbd 170a 85bd b601 243e
00000130: 216d 68bb 636e a0bb 410d b0bc 2b7a e239
00000140: 30c1 11bc c116 573c b686 aa3b 22b6 65bc
00000150: dcf3 f2bc 680c 153b 5805 33bc 6b14 bc3d
00000160: 057d 74be fc97 dc3c ea76 ab3b 19ce 07bc
00000170: eaa9 be3c 26a3 40bc 7397 11be f247 bd3d
00000180: 2bdb 0e3e 65f9 47bc f58c f53d 8037 0fbe
00000190: 2578 c83d 403c 813c 41ca 063a fce4 86bd
000001a0: e920 28be 24a3 2ebe d69d 3f39 edf1 f1bb
000001b0: 8955 16be a999 bbbd dcaf 12be 5df6 9cbb
000001c0: eb26 9a3b a456 1e3e 8ebc 09be 65fe 163e
000001d0: c9a0 133c 9a6e 06be 35b2 27bc a958 343a
000001e0: 6700 4b3e 441f a5bc 83be 2b3d dfcf c0bd
000001f0: e2f5 f4bd 274b 1a3e 8a24 653e 623a ac3c
00000200: 818f dcba 3778 febd 8513 8c3d ddd7 e2bb
00000210: 1f4f 533b 3854 23bd 4769 56ba ce66 053e
00000220: fcf2 8b3c 89eb ae39 bcde 2f3d e749 b23a
00000230: 0ec3 f0bd 17ab 03be 06b6 09be 8bd5 e83d
00000240: da54 e53d ff35 d1bd f73d 0ebe f91c e33d
00000250: 883e 9a3d 7bdc 013e ea25 f9bd 858e 07bc
00000260: 87e4 48bb 74b2 d73c 6863 223e e0a5 08be
00000270: bd50 cbbd d35e f03d cb14 9cbb 88c1 67bd
00000280: 900c 39bc 1a1b e93d df5e 0ebd 0210 143c
00000290: ff68 bfbc 2a43 f2bd e3e5 fa3d f3af 1b3d
000002a0: bbf6 2e3c ad5d 2d3c d467 dcbd 3d43 0abe
000002b0: 77a6 d9bc ce71 923c 4248 0dbd 15c1 f9bd
000002c0: 5b94 f23d b5fa 4ebc a234 9bbc c91c 24bd
000002d0: 5791 2e3e 0016 8abc 1e0b 0abe 8060 0d3e
000002e0: 2535 5f3c 1109 08be eaa5 84bc 8660 9a3c
000002f0: ccee bf3b da5f 35bb 2be7 c1bb df3a debd
00000300: 4b94 0dbd e4a9 16be 8584 903d 6ce5 06bd
00000310: 9c00 ad3c 54d5 00bc 4a41 f43c 2e04 fe3d
00000320: 2881 27bc 9cae 19bd 9683 853c 1047 eb3c
00000330: 999a 00be 19f9 0bbe 1b0e 0abe e3e5 f73d
00000340: ef44 ff3d 4412 d3bd 0214 1ebe a9c5 f13d
00000350: a771 8b3d a098 113e 9be1 19be f00f 023d
00000360: 1e8f 25bd 0bb7 1f3d 721f 123e 237c 11be
00000370: 7459 ddbd 6a19 fe3d c5aa 68bc f434 2ebd
00000380: f15e 173c 16ea e33d b67e 543a 919f 77bc
00000390: 3fbb d4bb 170d e7bd e722 043e 0fbb 1abb
000003a0: 7f7c a0bc 03da a2bc 2f51 f9bd d948 ffbd
000003b0: 7ba7 a8bc 1302 29b8 0a25 563c 3c58 05be
000003c0: a7a9 053e 4ae9 d13c 3cad 27bd 6dd0 053b
000003d0: 4060 0d3e d60d 24bd 40d6 22be 430c fc3d
000003e0: 5888 843d c636 27be a701 173b e6aa c63c
000003f0: 3f54 7bbc 97f4 463d 2686 183d dd02 e7bd
0.18860935 -0.015262108 0.056193296 0.1312537 -0.096061625 -0.12155762 -0.115732335 0.0024364018
0.06830936 0.10616392 0.06583983 -0.15697902 0.0052945726 0.0022154343 0.02311872 0.00018685029
0.008274678 -0.014602719 -0.0057362136 0.014901967 0.028952494 0.00058776967 0.011211138 -0.0947942
0.23770232 -0.026506646 -0.003909188 0.0076338407 -0.025079073 0.013389957 0.14021923 -0.092295684
-0.13928677 0.011088989 -0.118778266 0.13851644 -0.09515445 -0.016475096 -0.00010828976 0.06800578
0.1669845 0.16960342 0.00132101 0.0073462958 0.14859332 0.09236627 0.14508542 0.0063544903
-0.0057609146 -0.15341474 0.13546464 -0.14261863 -0.009070582 0.13374856 0.011061869 0.00013378607
-0.1952913 0.01914732 -0.040647287 0.09659437 0.11816394 -0.1496596 -0.22187375 -0.019675877
-0.19103722 0.015446077 -0.056417093 -0.13452442 0.0960951 0.12390881 0.11771326 -0.00025256624
-0.06500876 -0.10749529 -0.06496065 0.16016278 -0.0035465437 -0.0048959716 -0.021490695 0.000431971
-0.008896157 0.013127984 0.005204047 -0.014020475 -0.029657297 0.002274299 -0.010926567 0.09183582
-0.23875816 0.02692794 0.0052326815 -0.008288884 0.02327438 -0.011757648 -0.1421793 0.09242238
0.13950793 -0.012205456 0.11989776 -0.13986015 0.09788541 0.0157758 0.00051418325 -0.06586644
-0.16418804 -0.1705442 0.00018273978 -0.007383576 -0.14681067 -0.09160168 -0.14324898 -0.004790111
0.0047043464 0.15462738 -0.13450834 0.14745481 0.009010502 -0.13128129 -0.010235359 0.00068796665
0.19824372 -0.02015651 0.041929733 -0.09414648 -0.11960961 0.15067731 0.2237722 0.021023933
-0.0016827435 -0.12425273 0.068396606 -0.0069227056 0.0032243205 -0.03987524 -0.00081791397 0.13027498
0.017083637 0.00033363354 0.042937025 0.0013602347 -0.11755954 -0.12858234 -0.13448343 0.11368855
0.11197825 -0.10215377 -0.13890825 0.110895105 0.07531458 0.12681763 -0.12165435 -0.008273725
-0.003065379 0.02633021 0.15858233 -0.13344526 -0.09927509 0.11736836 -0.004763221 -0.05658105
-0.011294499 0.11382122 -0.034758445 0.00903702 -0.023365496 -0.11829217 0.12250879 0.038009595
0.010678942 0.010581416 -0.10761991 -0.13502212 -0.026568634 0.017876532 -0.03449274 -0.121950306
0.11844703 -0.012633015 -0.018945996 -0.040066514 0.1704763 -0.016856194 -0.13480803 0.13806343
0.0136235105 -0.13284709 -0.016192395 0.018844854 0.005857324 -0.002767554 -0.00591745 -0.108510725
-0.03456525 -0.14713246 0.07056526 -0.032933637 0.021118455 -0.007863361 0.029816289 0.12403141
-0.010223664 -0.037520036 0.016298097 0.028720409 -0.12558974 -0.13669242 -0.13481943 0.12104394
0.1246432 -0.10306218 -0.1543732 0.11805279 0.06808787 0.14218378 -0.15027468 0.03175348
-0.04041969 0.038992923 0.14269808 -0.1420751 -0.108080775 0.12407191 -0.014200871 -0.04253097
0.009238944 0.11128633 0.00081060396 -0.015113727 -0.006492048 -0.112817936 0.12903939 -0.002361003
-0.019590614 -0.019879347 -0.12173688 -0.124650665 -0.020587673 -4.029467e-05 0.013070354 -0.1302194
0.13052998 0.025623936 -0.040936694 0.002041842 0.13806248 -0.040052257 -0.15902042 0.12307026
0.06471318 -0.16329488 0.0023041756 0.024251413 -0.01533991 0.048573103 0.03723731 -0.11279843

action_net.bias f4 [5]
00000000: b035 8e3c 3c36 8ebc 5587 ecbd e307 e6bd
00000010: c55b 393e
0.017359585 -0.017359845 -0.1154925 -0.11231973 0.18101414
