model_curriculum/9. BeastLevelRandoBeginning/BeastLevel.onnx (onnx, 46556 bytes, 6 tensors)

mlp_extractor.policy_net.0.weight f4 [64, 104]
00000000: fffc 9ebe e15e b43d 411e 11bd 8223 68bd
00000010: a410 e03b 7ee2 a5bb 18e2 843d 8e47 1c3e
00000020: aa73 8d3e b798 38be 8e47 4cbe 85d6 acbb
00000030: c4d6 0dbe cce8 173e 1d85 093c 8543 e93d
00000040: a8e7 1bbe ed1a 7a3e 641b a73d d413 2f3e
00000050: 9cc7 92bd 0d3d 953d a906 8b3e e8c5 5e3c
00000060: 40a4 a8bb aaeb 37be e3a4 cbbe bf56 a63d
00000070: 16c6 253e 8783 cdbc f60c 3c3d 494c 89be
00000080: 1dd8 203e cd06 67be 6618 c03d 1ae8 9d3c
00000090: 3bba 773d 81f2 f9bd 5560 3ebd f3e2 54be
000000a0: e9f7 7d3e e5bf 2ebe 7c4b 2ebe 8f73 873d
000000b0: ae9c 08be 33c2 7a3d a6f0 dfbd 465c 6fbd
000000c0: fb3d 54be 9ff1 dcbd b4b8 d8bd ff58 1abe
000000d0: aabd 83be f7c2 06be 210d 893d 49bd 49bd
000000e0: b5bc 983d 249d 543d 5fd3 e63d c8ea 203c
000000f0: cffd a9bd 0bca 2a3e c82c 4d3e 362a b6bd
00000100: 2be6 613e 7acf 483c 8654 b03e 2ce9 d83b
00000110: 9388 c1bc 7d15 eabd 8a53 17be ae3e 673e
00000120: e191 06be e0e1 2a3d 978f ba3d 56cb 723b
00000130: 11c0 c4be 39f9 b53d deda 5dbd 8cef 99bd
00000140: bc71 683d a5fb 223e 53ed d1bd aeab ecbd
00000150: dc43 163e 8d29 4bbe 2e52 30bd 3188 eabd
00000160: 87e5 cdbd 0b43 013e bad1 bebd bfe2 953d
00000170: edcc 3d3e 1706 91bd ba5e 503e 33e4 b0bd
00000180: 54c3 0e3e c599 3c3d ef87 e53d cfc7 9bbe
00000190: bc75 a4bc 05b7 563e 4ce3 c8bd bbbb cd3d
000001a0: 1376 18be 0c09 bf3d bfa3 c7bc 7ccd 18ba
000001b0: 990e 2e3d 1394 1f3e fd65 d83c f64f 2dbd
000001c0: 2ec1 673d 1cab c23b 89b5 003e ede1 95be
000001d0: bef5 bebc 8611 a6bd f304 a4bd 8846 74be
000001e0: 5958 9dbd 235e debd 1865 4abd 04f6 8cbd
000001f0: ce65 393e c2c9 0e3e 0184 4a3e b3bc 483e
00000200: d008 20be 636a d6bd 25d6 91bc afa8 0cbe
00000210: 894f 953e 5208 563e 2ee5 d0bd 06a0 063e
00000220: 659e 213e a96f 71be 16c8 9ebd d7c2 503d
00000230: d53b ebbd b9bb dabd 857f 51bd 3786 38be
00000240: 2240 283e ad45 a53d 3cf0 47bd 6dae 443e
00000250: 0b02 eabc 9c9f 343e 8098 59bd e872 8b3e
00000260: b96e 473e 0f99 01bd e20d e2bd 24cf 01be
00000270: 94ad 8b3d 6aa1 863d 373c 25be 0880 3fbe
00000280: 2a39 1bbe 1516 f23c 89a7 b23b 00ec 34be
00000290: 47a8 493e 7f69 543d 5ace 063e cb68 96bd
000002a0: 10f0 14be 9102 4dbe 79c8 ecbd b147 41be
000002b0: 386e ed3d 5ae9 dfbd 8535 84bd 3dba 71bb
000002c0: e3c9 bcbd f701 933d 9763 413e f601 2f3e
000002d0: fdf0 53be 95c9 bc3d 9efd 4abb 8d36 efbd
000002e0: 3a7c cc3d 5a8a e5bd 1e47 123d 303c 113e
000002f0: 5323 a1bd 996f 803e 441b 48be dc1a ddbd
00000300: 815f 2d3e 3505 473c d0b1 63be e8da 13bd
00000310: f08b 00bd a8a3 92bd 61d1 66bd 37a0 93be
00000320: 4c2c 3ebe 7843 8b3e 453f 8d3d 0d78 ac3e
00000330: cf11 853d 2e77 3dbe 3e3f 2fbe df60 ed3d
00000340: 48ea a53e 8dd7 323e b6b5 9ebc b83b 3a3e
00000350: dc48 03be a4de 6a3e 4b3b 11bb ca83 f6bd
00000360: 4978 34bc 50f9 5fbd 8c1b 0a3e 4880 c4bd
00000370: 6e78 bcbd f3be e8bd d9e2 25be 07df 503d
00000380: f86b 2cbd 6750 3f3d 5a10 1bbd 64a1 8c3d
00000390: 70b8 a9bd d2d7 3cbc 660a f23d 00a1 73bc
000003a0: 4ec9 1bbd 3dd1 373d 8689 153e d1bf 81bd
000003b0: 6e21 9abd 9e2a 4e3d 1c34 c5bc 9dcc 0fbe
000003c0: 518a 0b3c cc58 fcbc 6488 193c 030e 313d
000003d0: f9ef 873e 75eb 783e dcb9 953c 3b1d eb3c
000003e0: 2756 a83e 29f1 b2bd c176 36bc b0f4 febc
000003f0: da44 8b3e a8d6 273e 88ba e0bd f820 963d
-0.31052396 0.08807159 -0.035429243 -0.056674488 0.006837921 -0.0050624004 0.064884365 0.15261671
0.27627307 -0.18027006 -0.19949171 -0.005274596 -0.13851458 0.14834899 0.008393553 0.113898315
-0.15225089 0.24424334 0.08159521 0.17097408 -0.07166979 0.07287035 0.2715352 0.013596989
-0.0051465333 -0.17960992 -0.39774236 0.08122014 0.16188845 -0.025087131 0.045910798 -0.26816013
0.1570744 -0.22561188 0.09379654 0.019275714 0.060480338 -0.12204457 -0.046478588 -0.207897
0.24801601 -0.1706539 -0.17020983 0.06613838 -0.13341019 0.06122036 -0.10934572 -0.05843761
-0.20726769 -0.10788273 -0.10582104 -0.15073012 -0.2573064 -0.1316031 0.06691957 -0.049252782
0.07457868 0.051907673 0.112707846 0.009821601 -0.08300363 0.16678636 0.20036614 -0.0889477
0.22060458 0.0122564975 0.34439486 0.006619593 -0.023624694 -0.1142988 -0.14777961 0.22582504
-0.13141586 0.041719317 0.09109419 0.0037047467 -0.38427785 0.08885426 -0.054163806 -0.07516393
0.05674909 0.15916307 -0.10250344 -0.11556183 0.14674324 -0.19840069 -0.043047123 -0.11451758
-0.100535445 0.12623231 -0.09317346 0.07318639 0.18535204 -0.0708124 0.20348635 -0.086372755
0.139417 0.046045084 0.11207568 -0.3042588 -0.020075671 0.20968254 -0.098089784 0.10045572
-0.14888792 0.093278974 -0.024370072 -0.00058289594 0.04249439 0.1558383 0.02641582 -0.042312585
0.056580715 0.005940808 0.1256925 -0.2927393 -0.023310538 -0.08108811 -0.080087565 -0.2385503
-0.076828666 -0.10857799 -0.049412817 -0.06882861 0.18105242 0.13944152 0.19776918 0.19603233
-0.15628362 -0.104695104 -0.017802307 -0.13736223 0.29162243 0.20901611 -0.101999626 0.13146982
0.15783079 -0.23577751 -0.07753007 0.050967064 -0.114860214 -0.106803365 -0.051147003 -0.18019949
0.16430715 0.0806993 -0.04881309 0.19207163 -0.028565427 0.17639011 -0.05312395 0.27236104
0.19475831 -0.03164011 -0.11037804 -0.12676674 0.06820217 0.06573756 -0.16136251 -0.18701184
-0.15158525 0.029551545 0.0054521007 -0.17668152 0.19693099 0.05185842 0.13164654 -0.073442064
-0.14544702 -0.2002051 -0.115616746 -0.18875004 0.11593288 -0.1093318 -0.064555205 -0.0036884688
-0.09218194 0.07178109 0.18885647 0.17090592 -0.20697398 0.09218136 -0.0030973922 -0.116803266
0.09984632 -0.11208029 0.035712354 0.14183116 -0.07868066 0.25085142 -0.19541651 -0.10796139
0.16930963 0.012147238 -0.22235799 -0.036097437 -0.031383455 -0.07160121 -0.056352023 -0.28833172
-0.18571585 0.27199912 0.06896833 0.3368534 0.06497537 -0.18502495 -0.17113969 0.11590742
0.32405305 0.17465039 -0.019373756 0.18186843 -0.12820762 0.22936493 -0.0022160586 -0.120368555
-0.011015006 -0.054681122 0.13487071 -0.0959478 -0.09202658 -0.11364546 -0.16199817 0.050993945
-0.042095155 0.046707537 -0.03785739 0.0686672 -0.08287132 -0.011526065 0.118183896 -0.014869928
-0.038033776 0.04487728 0.14603242 -0.06335414 -0.075259075 0.05033361 -0.0240727 -0.14042898
0.008516864 -0.03080406 0.009370897 0.043226253 0.26550272 0.2430857 0.018277101 0.028700462
0.3287823 -0.08737404 -0.011136712 -0.031122535 0.27200967 0.16390479 -0.10973078 0.07330507

mlp_extractor.policy_net.0.bias f4 [64]
00000000: 0e68 fd3d b865 25bd 4b9a a4bd a2b8 a53c
00000010: 223e 9a3d 0482 913c 106f ecbd 54c0 123d
00000020: d48e fb3c 25e8 06ba a1db 7c3d 9e63 9ebd
00000030: 92a8 0f3c 515e a43d 2791 c6bc 346d 7e3c
00000040: 9994 abbd b776 8f3d 9e50 00be 0d77 17be
00000050: 1d5b 863d aaf3 de3c 12fd 84bd 5f40 1f39
00000060: 099d 03bd 5665 41bc e374 8e3b 4c71 50bd
00000070: 1745 933d 8f95 42bd d9d9 f83c 1fe6 01be
00000080: e927 48bd 5f39 7f3d 0ef9 7e3d eda4 233d
00000090: f5db 55bd 2860 143d 7ddc d6bd f5fd 7bbd
000000a0: 5bfb a5bd 6651 863d 80ad 3ebd 187a 953d
000000b0: d460 27bd 0a0b 27bc 7ddd 8bbd 1e74 823c
000000c0: dcbc e83c 5264 acbd ef80 2bbe e9d7 903c
000000d0: 8330 8abc 6dba 1d3c db5f b2bc b6c3 0abc
000000e0: 52d4 abbc fbdf 43bd 303e e4bc c5d8 27bd
000000f0: 4d00 57bd fd4f 6f3a 9d7d 60bd 5eba 19bd
0.123733625 -0.04038021 -0.080372415 0.020229641 0.07531382 0.017762192 -0.11544621 0.03582795
0.030707754 -0.00051462866 0.061732892 -0.07733844 0.008768218 0.08025802 -0.024239136 0.015528966
-0.08377952 0.07005065 -0.12530753 -0.14791508 0.06560347 0.027215797 -0.06493582 0.00015187402
-0.032132182 -0.0118039455 0.00434743 -0.0508893 0.07190912 -0.04750591 0.030377315 -0.1268544
-0.048866186 0.062310573 0.062249236 0.039952207 -0.05221172 0.036224514 -0.104912736 -0.06152149
-0.08104583 0.06558494 -0.04655218 0.07298678 -0.040863827 -0.010195503 -0.06829355 0.01592451
0.028410368 -0.08417572 -0.16748403 0.017681079 -0.016868835 0.009626967 -0.021774223 -0.008469513
-0.020975266 -0.047821026 -0.027861685 -0.040978212 -0.05249052 0.00091290456 -0.054807294 -0.03753125

mlp_extractor.policy_net.2.weight f4 [64, 64]
00000000: 572f de3d 715a 97bd f725 123e 6839 893e
00000010: a1a6 8e3e 2602 953e fb25 813e 189b f6bc
00000020: f754 4b3e d1d5 183c 4c30 813d af61 08bc
00000030: e87f a13d 081e 0b3d 5df2 8c3e db57 d43b
00000040: bdef 70bb dd9d 843e fe4e 06be 0cd4 7a3d
00000050: 3f0f 12be a4d4 23be dd05 a4bd 2ba6 a4be
00000060: 036a 8abe 32b2 bc3e 3c90 0ebe 581d 9b3e
00000070: a2e6 0bbe ff55 533e 6f24 753d 6960 8f3e
00000080: c55e 303e 0704 75be 5194 e73c 9c4d ef3d
00000090: faec 82be 54cc 8d3d 84fe 5bbd 3add 7a3e
000000a0: 115f 3e3e 2df9 163e 8518 013e 7e82 573d
000000b0: e363 143e a4b2 e63d ded7 aa3d 49c5 843e
000000c0: db2f 913e 580d ab3b 2acd 813d 896a 893e
000000d0: 0c27 383d 776e 233e afc7 50be 6209 76bd
000000e0: 7b15 4b3d 911c 7bbe 1271 c1bd c614 20be
000000f0: 9d79 063e b744 663e ccee 573e daae 44be
00000100: 4bbb b0bd 260a 823e 5407 69bd 4366 5fbd
00000110: c4a2 1ebc 870a 7abd 27da cabe 6029 babd
00000120: 870d b93d cbd0 4b3e 5584 223e 22bf c4bd
00000130: 1d29 5bbe 8c36 093e 656d ee3c eb7c 813e
00000140: 4d35 34be 3e2e afbe b788 793e a826 813d
00000150: 63b0 74be eab2 5d3e 11fe 593e d86d 303e
00000160: d2dc a0bd 23d1 f73e dd07 a33c 2a6d 1cbd
00000170: fcf0 2e3d 8887 f83d b923 b1bc c6c8 e6bd
00000180: 418a d7bc f6f3 65be aec9 353e ef81 f13d
00000190: 7c7c 543e 5e33 d4bd edec 2dbe 1055 8ebc
000001a0: ae3a dabe b3b3 89be d86a 933d 9de6 87bd
000001b0: c46b 32be afd0 e0bd 2a82 05bb c4dc 9bbc
000001c0: 8ebf 793e 03f3 023e 66f5 6abd aa16 fc3d
000001d0: 8bcc 0b3e 7735 2b3e 14ca a13d afa5 bcbc
000001e0: 251c ab3e 1400 cfbe 04f8 61bd 2c8e 283e
000001f0: 4894 58be 7d07 003d 5dad 343e 8a4d 19be
00000200: c018 5b3e 99ce 093d bfd2 cb3d 002a 143e
00000210: 273f 0dbe de0a a5be 9588 ad3e 1d4d 8fbe
00000220: a2bb 90be e593 c7bd a6f5 8f3c 9eb7 923d
00000230: c696 ecbe 4d18 813b 4dd7 84bc 1855 953d
00000240: 748a aabd 0b29 93be b87a 80be 2dc2 143e
00000250: 01d3 d8bc 0e87 dc3c c37f 3b3e 5187 d73d
00000260: 2c5b bb3c dcf7 cebd cea0 3a3d 27bd cb3e
00000270: 2786 8abe 1e9b 48bd 5bd2 203e 6781 69bd
00000280: b729 343e fb60 fa3d ef8c 82be 8dc0 eebc
00000290: cc86 75be 6185 6abc c72b a0bd 912e c73d
000002a0: 79e0 22bd 6ca4 103e eccc 133e 2a63 90be
000002b0: ba82 dd3d 6318 1a3e 5556 553e e897 54bd
000002c0: 3f67 8c3e d11e f23d e785 49bd 8b48 373f
000002d0: 097f fbbd ba10 a53d 4687 263e 2f69 383e
000002e0: 6297 1bbe 9883 be3c f056 4f3b 8849 403e
000002f0: 477d f13e 5446 a1be e110 c1bc 13b0 393e
00000300: 12f0 a1bd f976 593e a65d 0f3d e8d9 a53e
00000310: edb9 7abe 5863 073e b87f c13d 2a71 86be
00000320: d4ba ab3c 80ea e63b ce85 0dbe 863a a03d
00000330: d45c 4a3e 1abe dcbc b2c3 8ebc aa79 38bd
00000340: 2afe adbe 8bbe 823d 56b5 843e 9924 1d3e
00000350: 364f f73d 2c39 f13c 8abc 383e b18f 813e
00000360: bcd4 6abd ab52 8a3e ff7d e33c b2dd 093e
00000370: 1056 95bd 211a 47be 399e 0ebe a115 713e
00000380: 89dc f1be 460c b13d b5fb 17bc 02f4 563e
00000390: 1fae 94bc 00e7 9c3e 4dae d0bd 118c 873e
000003a0: d898 e63d 9105 533e 31fc f63c dbcf 6bbe
000003b0: f7ee 96bd 3700 17be 072a 473e a088 c43d
000003c0: efe8 123d 145f 1fbd 44af 713d d122 4dbe
000003d0: 3c4c 87be b6e6 623d f861 0d3e 49f7 51be
000003e0: f045 00bb 8c69 bb3e 4fdc f0bd 4bc1 3e3e
000003f0: 1670 a2bc b767 82bd 2ea0 803e 47ed fc3d
0.10848873 -0.07390297 0.14272295 0.2680161 0.27861503 0.29103202 0.2522429 -0.030103251
0.1985663 0.009328322 0.0630804 -0.008324071 0.07885724 0.033964187 0.27528659 0.0064801998
-0.003676399 0.2590169 -0.1311607 0.06123738 -0.14263628 -0.15999085 -0.08008931 -0.32158026
-0.27034006 0.36854702 -0.13922209 0.30295825 -0.13662198 0.20638274 0.0598492 0.28003243
0.17223652 -0.23927318 0.028268965 0.11684725 -0.25571424 0.06923738 -0.053709522 0.24498454
0.18590952 0.1474349 0.1260701 0.05261468 0.14491229 0.11264542 0.08341955 0.25931767
0.28356823 0.0052200966 0.0633796 0.26839092 0.044959113 0.15960108 -0.20388673 -0.060067542
0.049581032 -0.24522616 -0.094453946 -0.15632924 0.1313233 0.2248715 0.21087188 -0.19207326
-0.08629473 0.25398368 -0.056891754 -0.054540884 -0.009682361 -0.061045196 -0.39619562 -0.09089923
0.09035783 0.19903867 0.15870793 -0.09606768 -0.21402402 0.13399714 0.029104898 0.25290617
-0.17598458 -0.34214967 0.24368559 0.06306201 -0.23895411 0.21650282 0.21288325 0.17229402
-0.07854618 0.48401746 0.01990121 -0.038190044 0.04271029 0.121352255 -0.02162348 -0.11268763
-0.026311042 -0.22456345 0.17752716 0.11792361 0.20750612 -0.1036136 -0.16984911 -0.017374545
-0.42622894 -0.26894912 0.07198113 -0.06635783 -0.17423922 -0.10977303 -0.0020371773 -0.019026168
0.24389479 0.12788014 -0.057362936 0.1230901 0.13652246 0.16719614 0.078998715 -0.023028223
0.3341991 -0.40429747 -0.055168167 0.16460484 -0.21150315 0.03125714 0.17644258 -0.14970985
0.2139616 0.033644293 0.09952306 0.14469147 -0.13793622 -0.32234854 0.33893266 -0.2798852
-0.28268152 -0.097450055 0.017573189 0.071639284 -0.4620878 0.0039396645 -0.016215945 0.07291621
-0.08327189 -0.2874225 -0.25093627 0.14527197 -0.026467802 0.026919868 0.18310456 0.105238564
0.022870623 -0.10105869 0.04556351 0.3979275 -0.27055475 -0.048976056 0.15705244 -0.057008173
0.17594038 0.12225529 -0.2549815 -0.02914455 -0.23977202 -0.014314027 -0.0782085 0.09725679
-0.039764855 0.14125222 0.1443364 -0.28200656 0.1081595 0.15048365 0.20833714 -0.05190268
0.2742252 0.11822284 -0.049199965 0.71595067 -0.122800894 0.08059831 0.1626254 0.18008874
-0.15194467 0.023256108 0.0031637512 0.1877805 0.47165892 -0.3149897 -0.023567619 0.18133573
-0.07907118 0.2123679 0.03500142 0.32392812 -0.24484988 0.1322149 0.094481885 -0.26258212
0.02096311 0.0070469975 -0.13820574 0.078236625 0.19761974 -0.026946116 -0.0174273 -0.045037903
-0.33982974 0.063839994 0.25919598 0.15345992 0.12075655 0.029446207 0.18040672 0.2530494
-0.057331786 0.27016196 0.02777004 0.13463476 -0.07291806 -0.19443561 -0.13927545 0.23543407
-0.47238567 0.08644919 -0.00927632 0.20991519 -0.018149434 0.3064499 -0.10189495 0.2647405
0.112596214 0.20607592 0.030149551 -0.2302851 -0.07369798 -0.14746176 0.19449626 0.09596372
0.035866674 -0.038909033 0.059005037 -0.20032813 -0.2642535 0.055395804 0.13806903 -0.20504488
-0.0019572936 0.36603963 -0.117607705 0.18628423 -0.019828837 -0.06367438 0.25122207 0.123499446

mlp_extractor.policy_net.2.bias f4 [64]
00000000: 1a15 3dbd 7f9b a5bc b0eb 31bd 6ba8 47bd
00000010: 9ab5 f9bc 39c0 af3d 7fe7 dc3c 61a2 5a3d
00000020: ce8f b93d fbfe 9cbd eaf5 f63a d087 98bd
00000030: 307c 31bb d85f 8b3b 293d d5bd 5842 853d
00000040: 5f88 e23c e8ed 0a3d e383 ee3c cf09 6dbd
00000050: b01c b1bc 27d5 0e3d ab10 cc3c 26bd b33d
00000060: feb6 d53c c490 40bd 59b3 99bc 4b4c d83a
00000070: fd93 183d 88d9 333b b2ad 153d 3671 b9bd
00000080: c1e4 21bc 9d27 4bbc 06c2 5e3d 6362 063d
00000090: ea46 9d3d 80d0 acbd c6a1 203c 5a53 d13c
000000a0: 174a 253d bcb0 de3a d72f 463d a064 913c
000000b0: 1c1b 863d 7b29 923a 7bc8 e83c d674 4c3d
000000c0: 2b65 273d 40b4 733d 7e04 8c3d 533d a6bd
000000d0: 9610 bf3d 4123 1ebc b41f 9d3c f27e 8dbc
000000e0: 3fd7 47bc bcd1 8b3a 29b5 71bd d6c2 bf3d
000000f0: 85ae 8e3c 828e 3cbd b8b0 5cbd 54fe 6fbc
-0.046162702 -0.020215748 -0.04343766 -0.0487446 -0.030482102 0.085815854 0.026965855 0.053377513
0.09060632 -0.07665821 0.0018841599 -0.07447779 -0.0027082078 0.004253369 -0.10412056 0.06506795
0.027652917 0.03391829 0.029115623 -0.057870682 -0.021620125 0.034871247 0.024910292 0.087763116
0.026088234 -0.04701306 -0.018762277 0.0016502229 0.037250508 0.002744289 0.036542602 -0.090547964
-0.009881199 -0.012399581 0.054384254 0.032808673 0.076795414 -0.08438206 0.009804195 0.02555244
0.04035386 0.0016989927 0.048385467 0.017748177 0.065481395 0.0011151278 0.028415909 0.04991611
0.040867966 0.05949807 0.06836794 -0.081171654 0.093293354 -0.00965196 0.019180156 -0.017272446
-0.012197315 0.0010667364 -0.05901066 0.09363334 0.017417202 -0.046034344 -0.05387947 -0.014648039

action_net.weight f4 [5, 64]
00000000: d935 8d3d 59dc c9bc 9c3b 0d3f c75d 6a3d
00000010: 7163 65be 4ab9 ddbd 20dd 16bf 5cf1 693e
00000020: 2b68 e43c d4ec 60bd b7ab 96be b3f4 323e
00000030: 5d2d 313e 7c3e 133d 4b50 1e3d ce31 1dbf
00000040: d136 75be a061 543c 390b 1abd 3417 8c3e
00000050: 12ff 173e a6a2 97bd 106b 7cbe 030d 25bd
00000060: 7d51 0ebd 1504 bd3d 038b 62be 27cc 08be
00000070: 9663 9e3d 168e c93b c718 76be 647e 433d
00000080: 7b9a d53e 2b5a e53c ed56 883e bc55 51be
00000090: 7a22 e03d 5087 02bd 397c aabe 0b56 a6bd
000000a0: 73a4 373c 2c50 6f3e a635 a8bd 998b 3fbe
000000b0: 7135 dbbd b03d 963d bb51 833d 343c 00be
000000c0: cb83 a2be 96c0 c7bd b922 b8bb 4351 d8bd
000000d0: 4ec8 8ebe 526a b03e f815 b3be 7199 093f
000000e0: 4e54 2f3e 8eb7 debe 692b 82bc 7c83 8e3c
000000f0: cf3d 92be 382a 303e 7af4 be3e 43f5 c53e
00000100: cf6a 8dbd 65fe c83c 6c62 0dbf 5857 65bd
00000110: 8758 653e 6441 de3d cf6c 163f a034 69be
00000120: e955 eebc 3c01 5e3d f203 983e b5c0 30be
00000130: c531 32be dee3 23bd fad2 30bd b627 1d3f
00000140: 7cb5 753e ae1d 4bbc d3d3 1a3d 4cdb 8cbe
00000150: b9fa 1abe 1fed 943d bf05 7f3e 571b 293d
00000160: a73a 093d 88cf bcbd 4a01 603e 4b95 083e
00000170: 3960 a1bd f402 9abb bb6e 743e acd9 47bd
00000180: 3b59 d5be 520a dfbc 1e63 87be 614a 513e
00000190: 47ff e2bd 9201 0c3d 3a98 a83e d4fd a63d
000001a0: e2b7 2cbc 42e9 6fbe 89bf a83d 9528 413e
000001b0: 2857 d83d 19e4 94bd daa6 7dbd 7f0a 033e
000001c0: 47f2 a23e a285 ca3d e981 e63b 8934 d73d
000001d0: 7e28 8f3e 046a b1be 18da b23e c993 09bf
000001e0: 0c3d 2dbe bfd8 dd3e 2666 793c 61d4 7ebc
000001f0: 964d 943e 5096 2bbe f8ee bdbe 0c14 c5be
00000200: 033e 17b9 c902 aabe fac6 263e 7041 75bd
00000210: a740 cdbd 0e27 a73d f8ef c1bd f746 14be
00000220: 0d50 5b3d 5200 76bd 59bf 6f3d 3948 d93e
00000230: 652c 94be fecd cdbe 2f6f b0bd 6186 41bf
00000240: 3499 d6be 872e 69bd c58d ac3d 829a 123f
00000250: 5178 753e 6309 06bf a9b2 a0bd a27b ca3d
00000260: d594 15bf 8c2f 1f3e 5dee 06bd 7028 15be
00000270: 192a cbbd b5d7 ddbe 9c92 77be 8aa9 4f3f
00000280: 69b0 073f 1fd1 cc3e 858b 2bbf d472 86bd
00000290: e8b4 813c 3f1b ecbc e6ae ae3c 7fbd bb3c
000002a0: b933 3b3c 5895 6dbe 8b4b 53bd 80f2 a13c
000002b0: ca9c e1be b074 463d 3a71 873e 0fed 03bf
000002c0: d1b5 453e f180 d4be fb09 f83c ac8a afbd
000002d0: 2e76 11bf e5ac bc3e 0f1b 6bbe 1f5b e23e
000002e0: cc2b 293e 4b31 a1be 1e4e a63d fe88 da3d
000002f0: 1d38 9abc 66de 343f c894 64be fa56 f43e
00000300: a452 5d3e 47e7 3a3e 83d8 163d 8af1 0f3e
00000310: 5feb 633e 1c41 7bbe 6a72 8a3d 9bfc 56be
00000320: c648 bdbe 0bab 813e 92a8 693d e582 cc3d
00000330: 6662 3f3e f4ae bf3d 71ee 793e c503 2bbd
00000340: 3cb4 c13d 4711 64be cae3 e5bd cab0 653c
00000350: 9267 c53d 049b f8bd 8aab e7bd c6d8 85be
00000360: d579 03be d128 263e 7e44 113e 8595 b4b8
00000370: 6810 75be 32c3 a4bd 3eb0 58bc 7ae2 463d
00000380: ac92 cd3d f793 513d 13fe 9ebd 188b 06be
00000390: 63fb 8fbe 9496 9f3e 13d2 26bd 79cf 44be
000003a0: e44b 36be 82e2 693d 0913 32be 552d 66bd
000003b0: b2c1 843d c0cd 1c3c 28d4 61be 8fd3 ddbd
000003c0: 114e 86be ccec f5bd ca0f 8ebe efd0 983e
000003d0: 9e0f 8f3d ca77 09be aeff 89bc cb50 dd3d
000003e0: af50 81bc 3e18 93bd 4e56 5c3e cad3 9ebe
000003f0: cf27 c5bd bdb3 9a3d c76b 1e3e 9175 f4bd
0.06895036 -0.024641203 0.5516908 0.05721834 -0.22401215 -0.10826357 -0.5893116 0.22845978
0.027881702 -0.054913357 -0.29427883 0.17476158 0.17302461 0.03594826 0.038650792 -0.6140412
-0.23946692 0.012962729 -0.03760836 0.27361453 0.14843395 -0.074040696 -0.24650216 -0.040295612
-0.034745682 0.09229294 -0.22123341 -0.13359128 0.07733838 0.006150971 -0.2403289 0.047727957
0.41719422 0.027997097 0.2662882 -0.20442861 0.10944076 -0.031867325 -0.332979 -0.0812188
0.011208641 0.23370427 -0.082133576 -0.18705596 -0.107035525 0.07335985 0.06412073 -0.12522966
-0.31741175 -0.0975353 -0.0056193736 -0.105623744 -0.27887195 0.34456116 -0.34977698 0.5374976
0.17122003 -0.43499416 -0.01588984 0.017396681 -0.2856278 0.17203605 0.37295896 0.38663682
-0.06905138 0.024535367 -0.55228305 -0.0559915 0.22397052 0.10852316 0.5875978 -0.22773981
-0.0290937 0.054200396 0.2969051 -0.17261012 -0.17401798 -0.040012233 -0.043169953 0.6138872
0.23995012 -0.012397213 0.037799668 -0.2751106 -0.15134706 0.0727179 0.24904536 0.04128584
0.0335032 -0.09219271 0.21875492 0.13338201 -0.07879681 -0.004700059 0.23870365 -0.048791572
-0.4166964 -0.0272266 -0.26442808 0.2043853 -0.110838465 0.034181185 0.3292864 0.081538826
-0.010541888 -0.23428825 0.082396574 0.18863137 0.10563499 -0.07270069 -0.0619267 0.12796973
0.31825468 0.0988877 0.0070345295 0.10508067 0.2796058 -0.34651196 0.34932017 -0.5374113
-0.16917819 0.43329427 0.015222108 -0.015553565 0.28965443 -0.16756558 -0.3709638 -0.38491857
-0.00014423583 -0.3320525 0.16286841 -0.05987686 -0.10022097 0.08161746 -0.094695985 -0.14480196
0.05354314 -0.0600589 0.058532093 0.42437914 -0.2894012 -0.40196222 -0.086149566 -0.7559567
-0.4191376 -0.056929138 0.08425478 0.5726701 0.23971678 -0.52358073 -0.07846577 0.09886862
-0.58430225 0.15545481 -0.032942165 -0.14566207 -0.09920139 -0.43328634 -0.24177021 0.8111807
0.53003556 0.40003297 -0.67009765 -0.065648705 0.015833333 -0.028821586 0.021323632 0.022917507
0.011425906 -0.23201501 -0.051585715 0.019768953 -0.44064933 0.048451126 0.26453573 -0.515336
0.19307639 -0.41504624 0.030278197 -0.085713714 -0.5682095 0.36850658 -0.22959541 0.44210145
0.16520613 -0.3148292 0.081203684 0.106706604 -0.018825585 0.70651853 -0.2232238 0.47722608
0.21613556 0.18252288 0.036827575 0.14056984 0.22257756 -0.24536556 0.06760104 -0.20994799
-0.36969584 0.25325808 0.057045527 0.09985904 0.1868988 0.093595415 0.24407364 -0.04175164
0.09458205 -0.22272216 -0.11225088 0.014019201 0.09638895 -0.12138942 -0.11312015 -0.26141948
-0.12839444 0.16226508 0.14186284 -8.610919e-05 -0.2393204 -0.08045043 -0.013225613 0.04855583
0.10037741 0.0511665 -0.077633046 -0.13138998 -0.2812148 0.3116957 -0.040727686 -0.1921977
-0.17802387 0.05710078 -0.17390074 -0.056195576 0.06482257 0.009570539 -0.22053587 -0.10831367
-0.26231435 -0.12008056 -0.2774642 0.29846904 0.069854006 -0.13424602 -0.01684555 0.10806426
-0.015785543 -0.07182358 0.21517298 -0.31020957 -0.096267335 0.075538136 0.15470801 -0.119364865

action_net.bias f4 [5]
00000000: 153e 183d cd3d 18bd 080f a33d ee8f b3be
00000010: e6d4 713e
0.03716858 -0.037168313 0.07961851 -0.35070747 0.2361637
